src/BTVNanoCommissioning/data/TTBAR_REWEIGHT/hdamp_ml/mymodel12_hdamp_up_13TeV.onnx (onnx, 239319 bytes, 14 tensors)

StatefulPartitionedCall/model/tdist_2/dense_2/MatMul/ReadVariableOp:0 f4 [100, 128]
00000000: f5eb 33bd c50c a5bc a51e 8f3d 30fb f7be
00000010: cec5 2dbe 5dd0 b5be 4036 30be f791 8ebe
00000020: 47c0 c9be 6ee2 a8bd 9d4f 80bd fea7 93be
00000030: 888f febe 5d46 1dbe c939 a2be 8a21 44be
00000040: 67b2 71be e406 bc3c f89c 17bf fdfc 023e
00000050: 332d 96be e53e 10be 8629 8fbd d369 38be
00000060: c8f4 653c ff8e ac3d f645 81be bce8 e4be
00000070: e50e 88be 7357 7bbe c27b 83be cc7d d7bd
00000080: c64d 40bd f970 88be 4f65 22be 1ea2 bf3c
00000090: 67e5 cabb e5df 62be 3456 c8be fece 99bd
000000a0: 7db1 9bbe 7af6 14be 2a7a 523d 577a 74be
000000b0: adfa 34be 4213 bbbe 3896 62be 4786 b9bc
000000c0: c41a 6ebe ef32 0fbe 81ee 8abc a985 02bd
000000d0: d8ab 32be 590c 92be 5944 15bd 45aa 293d
000000e0: a04d 87be a1bb 87be 01dd 82be 50c2 4bbd
000000f0: e246 abbd 9c8f 37be 399d 95be e1a0 93be
00000100: 8289 1abd f554 0e3d 6f9f 4abe 7afd 0e3d
00000110: 40a8 73bc 1cbd 4bbe 46d5 53be fcae 9dbe
00000120: 4ce5 54be cc84 89be 37cf 5ebd bdbc b0bd
00000130: ec24 11be fed6 a3be c0b0 f7bd 04cb 1a3d
00000140: 810c 85be ea9c 0abe 6715 e0be 703d 28bd
00000150: c43c c1bd 2872 253d 19bd 1ebe 9217 6cbe
00000160: da42 4bbe 12d3 70be 8c9d a0bd 7e68 0fbe
00000170: 8c7a 6ebe efe1 81be f04d 43be 52a1 93be
00000180: e159 f3bd 1de4 6ebd 557d 4fbe b47d 08bc
00000190: 12a2 86be 674f f8bd 946f fbbd 96af 34be
000001a0: a4c9 bebd d2d5 0cbe dac4 8abe 4e60 78be
000001b0: bafb 98be c435 41bd 6d8d 45be b19d b63c
000001c0: 528b 1ebe 555f 91be dea5 88be 2b24 83be
000001d0: 156b e0bd 0003 43bd 27eb adbd 0b94 a7be
000001e0: 8bb9 25bc a4fb d5bd 56da b4be 64e4 febe
000001f0: 1894 20be 8ab8 6fbd 729b 49be a5ad 8bbe
00000200: c06d 1d3e 6069 b93d 36ed 77bd 31a0 9abc
00000210: b76d dbbd ffc4 97bd ca38 89bc 3521 4abe
00000220: ccd4 c3bd c7bb 44bd 9e9f df3d b301 563e
00000230: 3b33 6ebe fff8 473e a77e 123e b697 093e
00000240: 4ca6 60be eb43 e53d a010 59bd 9b4d 22bc
00000250: fc6c 153e 0410 2c3d cb64 17be 39fb 27be
00000260: 21a0 893b bbf9 5cbe 3c5a 47be 212c 0d3e
00000270: 6b81 f8bd 8caf 233e b777 8abd 4769 f1bd
00000280: d585 f8bd caf5 28be 9931 e0bc 25fe 323e
00000290: 47a7 45be 8a43 ebbd 5c32 30bd c83f 8dbe
000002a0: a55a 42be 331b fd3d 7366 f7bd 9693 e23b
000002b0: a22f ffbd 639e a5bd e885 d33d 84b1 563d
000002c0: e175 6fbe 6605 19bd 7eca 303d a8db e03d
000002d0: a169 81bc 62e0 2bbd 77e7 44bd 9097 633e
000002e0: 21dc c53c 64fb 64be c294 64be 1301 58bc
000002f0: 637a 9b3c 6bef d9bd 0138 3bbe 48b0 643e
00000300: 73d8 373e 06ee 51be fcbb 843d 7b46 33bc
00000310: ebb9 28be bbb3 d1bb 8573 64be 9b3e 0cbd
00000320: 2277 b3bd 24c8 1fbc 8bcf 25bd 5b4b f3bd
00000330: 9795 69be 6c21 90bd ac90 cb3d d146 1bbe
00000340: 4455 02bd e90d 223d 10b9 ee3d 91c1 54be
00000350: 3837 9c3b 033f d03b 8558 093e 2800 1e3e
00000360: f7d1 a4bd bb4f 72be d89c 7cbe 0039 283e
00000370: fecc ab3d 5b7f 01be 46ae fcbc 363d 1abe
00000380: a8a3 343d 979a 75bd af80 19be 0d0f 99be
00000390: 8a91 14be 1026 17bc 927b 183e 83b7 23be
000003a0: ff95 11be fbcb 0ebd 1820 23be 72b2 0e3e
000003b0: 68c9 11be 8d9c 4b3e 6832 c73c 3246 293d
000003c0: 6b64 183e 6095 533e 5eb1 df3d 7e33 14bc
000003d0: 2bfa 343d 0462 863e 5dd8 c03d c264 283e
000003e0: cce5 82bd 8944 22bd 1513 9e3b c38d 213e
000003f0: 557f 2cbe 8560 73be 3594 e4bd 20b1 cfbd
-0.043926198 -0.02014769 0.06988267 -0.48433828 -0.16969988 -0.3551053 -0.17208195 -0.27845737
-0.39404508 -0.08246313 -0.06265185 -0.28839105 -0.4971888 -0.15358873 -0.31684712 -0.19153419
-0.23603211 0.022952504 -0.5922389 0.1279182 -0.2933136 -0.14086492 -0.06990342 -0.18009119
0.014035411 0.08425712 -0.25248688 -0.44708812 -0.26573864 -0.24545078 -0.25680357 -0.10522041
-0.04694917 -0.2664869 -0.15858959 0.023392733 -0.0061918977 -0.22155721 -0.39128268 -0.07510184
-0.3040885 -0.14547148 0.051386036 -0.23874794 -0.1767375 -0.3653813 -0.22127616 -0.022647036
-0.23252398 -0.13984273 -0.01695943 -0.03186575 -0.17448366 -0.28525046 -0.036442135 0.041422147
-0.2642641 -0.26510337 -0.25559238 -0.049745858 -0.08363129 -0.17925876 -0.29221514 -0.28833678
-0.037728794 0.03474899 -0.19787382 0.034909703 -0.014871657 -0.19896358 -0.20686826 -0.30797565
-0.20790595 -0.26859128 -0.054396834 -0.08629749 -0.14174241 -0.31999964 -0.12094259 0.037791267
-0.25986102 -0.1353642 -0.4376633 -0.041074216 -0.09435418 0.04039207 -0.15501823 -0.23055866
-0.1984972 -0.23518017 -0.0784255 -0.14004704 -0.23288935 -0.25367686 -0.190727 -0.28834015
-0.118823774 -0.058323015 -0.20262654 -0.008330751 -0.26295525 -0.1212452 -0.12277141 -0.17645106
-0.09315804 -0.13753441 -0.2710331 -0.24255487 -0.29879552 -0.047170416 -0.19292231 0.02229199
-0.15482834 -0.28393045 -0.26689047 -0.2561353 -0.10957924 -0.047610283 -0.084921174 -0.32730135
-0.010115038 -0.10448387 -0.35322827 -0.49783623 -0.15681493 -0.0585256 -0.19688204 -0.27280918
0.15373898 0.09053302 -0.060528956 -0.018875213 -0.10714286 -0.07410621 -0.016750712 -0.1973923
-0.09562072 -0.04803064 0.109191164 0.20899086 -0.2326173 0.19528578 0.14306127 0.1343678
-0.21938437 0.11194595 -0.05299437 -0.009906198 0.14592355 0.04200746 -0.14784543 -0.16404428
0.004199997 -0.2157964 -0.19468015 0.13786365 -0.121340595 0.15984935 -0.06761115 -0.11787658
-0.121349014 -0.16500011 -0.0273674 0.17479761 -0.19302092 -0.114874914 -0.043016776 -0.27587724
-0.1897989 0.123587035 -0.120800875 0.0069145663 -0.12460257 -0.080868505 0.10328275 0.052415386
-0.23384811 -0.037358664 0.04316186 0.10979396 -0.015797438 -0.041962035 -0.048072305 0.22225785
0.024152817 -0.22361523 -0.22322372 -0.01318385 0.018979257 -0.106413685 -0.18283083 0.22332871
0.17953663 -0.20500955 0.06481168 -0.010942097 -0.16477172 -0.0063995994 -0.22309692 -0.034239393
-0.08762957 -0.009752307 -0.04048113 -0.11879607 -0.2281097 -0.07037625 0.09939703 -0.15163733
-0.031819597 0.039564047 0.116563916 -0.20776965 0.004767325 0.006355168 0.13412674 0.15429747
-0.0804786 -0.23663227 -0.24669206 0.16427994 0.083887085 -0.12646239 -0.030844819 -0.15062413
0.044101387 -0.05996188 -0.14990495 -0.29894295 -0.14508644 -0.009225383 0.14890888 -0.15987973
-0.14217375 -0.0348625 -0.15930212 0.13935259 -0.14236987 0.19883938 0.024316028 0.04132671
0.14882056 0.20662451 0.10922502 -0.00904548 0.04418389 0.26246655 0.09416268 0.16444686
-0.063914865 -0.03961614 0.004824052 0.15776734 -0.16845448 -0.23767288 -0.11161081 -0.10141206

StatefulPartitionedCall/model/tdist_2/dense_2/BiasAdd/ReadVariableOp:0 f4 [128]
00000000: 4887 00be 85a2 19be e503 e7bd 08b5 7abe
00000010: af86 b1bd f3ea 80be c0bc 88bd 2d18 e2bd
00000020: 1cc7 8ebd 0ab8 07be a628 b6bd 7d15 f4bd
00000030: 1741 19be 9cbf d2bd f8fa a2bd f793 b9bd
00000040: 7b3c 49bd ce4f 59be 0009 6cbe 7255 c6bd
00000050: f9ba 05bd 7970 b3bd 861b 81bd 5db7 f0bc
00000060: 5f7f 44bc 7091 1abd 0f3d 26bd bd68 2dbd
00000070: 567b 87bd e1ce 73bd d563 9f3d eb0a 2ebe
00000080: 009e 57be 82e6 62bd f43c a7bd 1617 74be
00000090: 9d2e ca3c 2540 bbbd fbef 4fbe 4ac0 f9bd
000000a0: a649 97bd 5db5 25be 1b43 c5bd 8781 e0bd
000000b0: 0477 75bd 44a0 a1bd fbd6 5bbd 8bbf 01be
000000c0: 0916 4bbd c4bc c1bd 6dd9 36be 5ebf fcbc
000000d0: e377 96bc 1ee4 93bd 2ecd 1fbe 9c02 ffbd
000000e0: e5d9 69bd 89ff 9cbd 1036 6dbd 9f1a f3bd
000000f0: c26a 86bd 9307 d8bd 5c76 f4bc 9b11 60be
00000100: 9316 babd 4f06 dbbd 2e9b 88bd 11d8 e8bd
00000110: 6a4d 993d a3be c2bd 14ee a9bd 69ec 07be
00000120: 90c6 03be ebbb 72bc f1d3 b93c b02b 32bd
00000130: e013 f8bd 9bba 8abe d359 7ebd bbaf 303d
00000140: 6753 18be 6595 30be 0ce1 d7bd b4d2 353e
00000150: 3eb6 58bd ca7a 723c fad4 f3bd 7697 57be
00000160: d6fe 2abd 9125 34bd bfbd 22be 4952 14bc
00000170: 05b4 39be 7af4 38be 4573 f4bc 28d7 e1bd
00000180: 3f9d a1bd 7916 15be acf5 edbd 1a5c 3f3e
00000190: 8f26 55be 4c00 8cbd a573 59bd 004d 0bbd
000001a0: 85f9 15be 1099 93bd 78e6 f9bd 13b4 b4bd
000001b0: bd11 a3bd 583c 60be ec40 0bbe 9b6e 9ebb
000001c0: 1235 acbd 2192 8dbe a6cf 4dbe 0ab4 34be
000001d0: aaff 01ba 274f 133c 61a3 12be 91af 23be
000001e0: af48 3ebe 6e24 24be 89ec e83b 94d6 75be
000001f0: 5422 2bbd 33e3 22be 0262 87be 0a65 c73d
-0.12551606 -0.15003403 -0.1128004 -0.2448312 -0.08668267 -0.25179252 -0.06676626 -0.110397674
-0.06971571 -0.13253799 -0.08894472 -0.11918161 -0.14966236 -0.10290453 -0.07958025 -0.09061425
-0.049129944 -0.2122185 -0.23050308 -0.09684266 -0.032649014 -0.08761687 -0.06304078 -0.02938431
-0.011993258 -0.037736356 -0.040585574 -0.042336214 -0.06615321 -0.059523467 0.07782713 -0.16996352
-0.21056366 -0.05539561 -0.08165923 -0.23836932 0.02468043 -0.09143094 -0.20306389 -0.12194879
-0.07387094 -0.16182466 -0.0963194 -0.109622054 -0.059927955 -0.07891896 -0.05367182 -0.12670724
-0.04958156 -0.09459832 -0.17856379 -0.03085297 -0.018367713 -0.07221244 -0.15605614 -0.124516696
-0.057092566 -0.07665927 -0.057912886 -0.11870312 -0.06563331 -0.1054832 -0.029841594 -0.21881716
-0.09086337 -0.10694563 -0.06670223 -0.113693364 0.07485469 -0.09509017 -0.08297363 -0.13273777
-0.12868714 -0.014815311 0.02268407 -0.043498695 -0.12113166 -0.27095494 -0.06209738 0.04313634
-0.14875565 -0.1724449 -0.10540971 0.17756158 -0.052908175 0.014799783 -0.119058564 -0.21053872
-0.041746937 -0.04398114 -0.15892695 -0.009052821 -0.18135078 -0.1806201 -0.029840121 -0.11027366
-0.078913204 -0.14559354 -0.11619124 0.18687478 -0.2081549 -0.06835994 -0.053088803 -0.03400898
-0.14645965 -0.07206929 -0.122021616 -0.08823409 -0.07962368 -0.2189802 -0.13598984 -0.0048349625
-0.0840856 -0.2765055 -0.20098743 -0.17646804 -0.00049590564 0.008991039 -0.14320137 -0.15984942
-0.18582414 -0.16029522 0.0071082753 -0.24007636 -0.041780785 -0.15906982 -0.26441962 0.097360685

StatefulPartitionedCall/model/tdist_1/dense_1/MatMul/ReadVariableOp:0 f4 [100, 100]
00000000: 6382 87be f691 50be 2e46 37bd f36b 73be
00000010: c2dc 7fbe 09be 0b3c a17f 11be 906d 583e
00000020: 6019 6dbe a2c3 ca3d 7254 623c 8c52 043e
00000030: 3a6a 12be 2578 02be 1a8f 043e f083 323e
00000040: d844 6bbc 62f8 c3bd 5644 1fbe 7a4e a93d
00000050: 7dc3 0abe c63a e53d 21c5 873d 0819 c63d
00000060: e594 243d c634 693d 9087 b9bd 79bb 713e
00000070: f7cf 2cbe 0e9b b63d 1f60 e73d 8494 1ebe
00000080: de83 e0bd a02c a7bd d451 b2bd 3294 85be
00000090: 31da f9bd 55b8 43be 68e9 d33d 81e3 ac3c
000000a0: 9b5a 3bbe 9f70 8aba b97a 663e 9add 92be
000000b0: 4eb2 4d3d 5eb0 61bd ad49 d0bc 7f67 7cbe
000000c0: 8231 5239 7f99 0fbe 32e3 0cbe ab03 0d3e
000000d0: 766d f7bd 5583 35be eae6 593e 72b0 d2bc
000000e0: d0d4 16be 50d7 6f3e a0c6 353e 2667 7fbe
000000f0: ba3a 57bd ab68 0fbe abeb b1bd 6d2b 7dbd
00000100: 0431 a83d 41db 4e3e 9f66 52be 95bf c13c
00000110: 1574 183e da9f 58be 8a01 73be 1e0f 08bd
00000120: b7b1 6a3d 929e 51bd 99d7 ff3d 9233 1f3e
00000130: 9b41 01be 989c 47be 7db4 f03c aff0 06be
00000140: 102b 85ba 1705 5a3e 1ec0 323e 6496 62be
00000150: 074c 5e3e 64f2 75be ff9c 15be ad98 a8bd
00000160: 5f26 23be 810d a3bd a3cf 8fbe e9cf 203e
00000170: 41ab 0dbe 5798 f43d d042 c63d ceb5 9ebe
00000180: 8fb3 173d 97db 9fbc 5676 9abc ed33 8d3c
00000190: afed 14be 021e 343e 1125 10be 8543 f83c
000001a0: aa54 3cbd f1f9 14be 5c84 443d 1f2b 493e
000001b0: 7962 0e3e 84b2 c7bd 6dd6 05be 11e1 2d3e
000001c0: 0172 333e 2a9f 3cbe 2a38 02bd 666d 243d
000001d0: c461 63bc 0f5d ce3c 3a63 f5bd 81fa 9bbd
000001e0: 2886 fe3d 08df b0bd 2161 c1bd 8e50 58be
000001f0: 62dd ed3d 7835 6d3d e06e 7bbd ce07 be3d
00000200: efea 1cbb bacc 663d 2ea3 ef3d c167 adbd
00000210: 0b8f 153d e3c3 39bd 5fee 923e b4cb 01be
00000220: 560e 513e 6c2d 75bd 106c 03be 0ec4 73bb
00000230: 9a8b 2abe a53f 4dbe fc01 cabd b29a 1a3e
00000240: 5de5 7bbd fe4b 973d fa07 babd e13a 98bd
00000250: 714f 2ebd 06be 51be 76d0 853e 7158 583c
00000260: 0d8e a73d c0b3 00be 1b46 79bd 66ba e8bb
00000270: ff84 aabd f3f6 75bc f363 dd3d 05c9 e53d
00000280: e1f1 db3d 043f 5f3d 6198 653e 37a5 4a3e
00000290: 8ec9 893e faab 643e bb37 2d3e 5456 133e
000002a0: 13aa c63e 1d19 673e ffee 05be 44f0 ca3d
000002b0: a91a a13d b29c 38be c26c a33d 7ae5 263e
000002c0: ff29 6cbd 749f e33d 4273 37be e5cf 943e
000002d0: ced7 98bc 69d9 15be 92a6 84be d507 1f3d
000002e0: dd65 0a3e 3645 9f3c 1dcb 47bd 616c 613e
000002f0: 9d4e d1bd e6f4 5f3e 4c10 aabd d247 813e
00000300: 960a 743e 6fcc 90be ca4b a2be 600b 97be
00000310: a715 54be e9b6 6f3d eb0c 39bc b4e9 a53d
00000320: f2db 753c f0f3 d8bd 6bc8 8dbd 4d0a 153e
00000330: e6e3 013e e11f 143e 1ff5 e438 de25 a13c
00000340: 3807 93bc 4d3a 2bbe a319 91bd f3b3 babd
00000350: d028 c7bd 03aa 9bbd 832e 16be 73c4 37be
00000360: 43b6 20be 18f8 913d a1b4 c53d 6bb6 73be
00000370: f253 833d 86ba 1ebc 05ee bb3d 7232 41be
00000380: 0572 4a3e e558 10bd 7156 f03d 570b 0bbe
00000390: afff 87bd 3072 4fbe ac08 33bd dc70 f03d
000003a0: 5406 b63d 5d68 83bd 7069 05bc 1e8b 183e
000003b0: 241a a3bd 8d61 493e 57f5 c53d cc0b 903d
000003c0: 72da 6ebe 4b30 4b3e 9cef 30be e443 183e
000003d0: 1fd4 33be 92c6 b73d 778a 64be 0231 b6bd
000003e0: 04d5 47be 52b2 023d a70d 9e39 3d39 19be
000003f0: 9c0b 35be 3665 2cbe de5e 05bf cf41 6e3d
-0.26466665 -0.2036818 -0.044744663 -0.23771648 -0.24986556 0.008529195 -0.14208843 0.21135545
-0.23154211 0.09900595 0.013814079 0.12922114 -0.14298335 -0.12741144 0.12945214 0.17433143
-0.014359675 -0.0956886 -0.15553412 0.08266921 -0.13551135 0.11192851 0.06629396 0.09672743
0.04018106 0.056935094 -0.090590596 0.23606671 -0.16876207 0.08916293 0.112976305 -0.15486342
-0.10962652 -0.081628084 -0.08707014 -0.26089627 -0.1219982 -0.19113286 0.10347253 0.021104576
-0.18296282 -0.0010562128 0.22507752 -0.28684694 0.050218873 -0.055099837 -0.025425756 -0.24648856
0.00020045604 -0.14023398 -0.13758543 0.1377093 -0.12081425 -0.1772588 0.21279493 -0.025718901
-0.14729619 0.23421979 0.1775155 -0.24941692 -0.05254624 -0.14004771 -0.08687528 -0.061808992
0.08212474 0.20200826 -0.2054696 0.023650924 0.14888032 -0.21154729 -0.23731056 -0.033217542
0.05729839 -0.051176615 0.12492294 0.15547016 -0.12622683 -0.1949333 0.029382939 -0.13177751
-0.0010159928 0.21291004 0.174561 -0.22127682 0.2170869 -0.24018246 -0.1461067 -0.082322456
-0.15932606 -0.0796156 -0.28088102 0.15704311 -0.1383486 0.11943119 0.09680712 -0.3099808
0.037036475 -0.019513888 -0.018855255 0.017236674 -0.14543794 0.17589572 -0.1407664 0.030305633
-0.04597918 -0.1454847 0.04797779 0.19645356 0.13904752 -0.09750846 -0.13070078 0.16980387
0.17523958 -0.18420091 -0.031791843 0.040143393 -0.01387829 0.025190858 -0.119818166 -0.07616139
0.12427932 -0.0863629 -0.09442354 -0.21124479 0.11614491 0.05791232 -0.061385036 0.092788324
-0.0023943742 0.056347586 0.11701046 -0.08467055 0.03651337 -0.045352828 0.28697488 -0.12675363
0.20415625 -0.05985777 -0.12834191 -0.0037195715 -0.16654816 -0.2004381 -0.0986366 0.15098074
-0.061498035 0.07387541 -0.09083553 -0.07433105 -0.04255623 -0.20482644 0.26135606 0.01320468
0.08181391 -0.12568569 -0.060857873 -0.0071022986 -0.08326148 -0.015012491 0.108100794 0.11219982
0.10739494 0.054503456 0.22421409 0.19789587 0.26911587 0.22331229 0.1691579 0.143884
0.3880163 0.22568174 -0.13079451 0.09909108 0.07866413 -0.18028525 0.07979728 0.16298476
-0.057657238 0.11114398 -0.17915061 0.2906486 -0.018657591 -0.14633717 -0.25908333 0.03882583
0.1351542 0.019442182 -0.04877769 0.22014 -0.102200724 0.21870765 -0.0830389 0.25250107
0.23832163 -0.2828097 -0.31698447 -0.29500866 -0.20711385 0.058524046 -0.011294584 0.08101216
0.015006052 -0.105934024 -0.06922992 0.1455471 0.12684593 0.14465286 0.000109175446 0.019671377
-0.017947778 -0.16721459 -0.07084968 -0.09116354 -0.09724581 -0.076007865 -0.1466618 -0.17946033
-0.15694527 0.07127398 0.09653593 -0.23800056 0.06412496 -0.009688025 0.09176258 -0.188669
0.19770057 -0.035241026 0.117352374 -0.13578545 -0.06640565 -0.20258403 -0.043709442 0.11740276
0.08887926 -0.0641639 -0.008142814 0.14896819 -0.0796397 0.19666119 0.096659355 0.070335
-0.23325518 0.19842641 -0.17278904 0.14869648 -0.17561387 0.08973421 -0.22318445 -0.08896066
-0.19514853 0.03190834 0.0003014628 -0.14963241 -0.1768021 -0.16835484 -0.5209788 0.05816823

StatefulPartitionedCall/model/tdist_1/dense_1/BiasAdd/ReadVariableOp:0 f4 [100]
00000000: 8a17 763e 0e72 3dbd 9a83 66bd fa44 5bbd
00000010: 4f73 c7bc 9c08 83bc 1ccc aabd f9e6 ccbc
00000020: 0000 0000 8f58 14be 20a3 4238 dbb0 d8bd
00000030: 26be c8ba 0b17 0fbc fc5b b8bd 0cf1 2c3c
00000040: 1c22 e8bc 2250 f9bc b494 66bd 78e2 94bd
00000050: 27bc 62bc b2af 21bd a677 a83c 4a75 bebc
00000060: 7f95 a5bd 6818 ffbc b925 0dbd 10ed a6bd
00000070: cc9e 97bd e5e3 34bd d52d f6bd 3c83 51bd
00000080: 192b 5cbc 8858 e3bc 6ee6 58bc 006f 5dbc
00000090: 2f83 f1bc 765e 14bb c2cc 45bd f2fa 27be
000000a0: f98a bfbd 9bd0 57bd 84cb 153d 9ab8 64bd
000000b0: b338 bdbc a26b 75bc 069f 99bd c02b afbc
000000c0: 6877 5ebd 2616 56bd e1a4 ccbd 9872 86bd
000000d0: 6149 cebd c03b a6bc 2978 47bd 7ca2 41bd
000000e0: 4334 6abd 9a38 9fbb 2a6b 44bd 5923 48bb
000000f0: dfb8 42bc 0220 ffbb 5912 bdbb cf79 023d
00000100: fa1c 0cbe 611b 1ebd e3d2 a7bd 53ec 05bd
00000110: 69c6 c0bd cd7a 9dbd d161 7ebd 1781 d2bd
00000120: ba3f a7bd 91da 2fbc 3fa6 9e3c dafa 35bd
00000130: 611a 45bc 6688 fabc 1429 3dbd 0c97 3ebe
00000140: 67dc 96bd bda0 2dbc 91cb 19bd 5462 d3bc
00000150: d52c 4ebd b4f7 2ebc 2aaa 57bd 1f62 adbc
00000160: 4fb0 0abd 1d89 6bbc 3336 84bd 48e8 41bd
00000170: 3222 6dbc 39c1 d6bd 51aa 38bd 3ddd b8bd
00000180: cb1c 05bd f817 5abd e530 dabc 5530 eabc
0.24032417 -0.04625135 -0.05627785 -0.053532578 -0.024346976 -0.015995316 -0.08339712 -0.02501248
0.0 -0.14486907 4.6405126e-05 -0.105806075 -0.0015315458 -0.008733521 -0.090019196 0.010555517
-0.028336577 -0.030433718 -0.056294158 -0.07269758 -0.013838804 -0.039474197 0.020564865 -0.023249287
-0.08085155 -0.031139567 -0.034459803 -0.08150685 -0.07403335 -0.04416265 -0.120204605 -0.051150545
-0.01343801 -0.027752176 -0.0132385325 -0.013515234 -0.029481499 -0.002263931 -0.048290975 -0.16404322
-0.09352679 -0.052689176 0.03657104 -0.055840112 -0.023098325 -0.014979275 -0.075010344 -0.021383166
-0.054313093 -0.052267216 -0.09992386 -0.06564826 -0.1007259 -0.020292163 -0.048698578 -0.047274098
-0.057178747 -0.0048590424 -0.047953762 -0.0030538647 -0.011884897 -0.007785798 -0.0057700095 0.031854447
-0.13682929 -0.03860033 -0.0819452 -0.03269608 -0.09412844 -0.07689438 -0.062105004 -0.10278528
-0.08166452 -0.010733263 0.019366382 -0.044428684 -0.012030215 -0.030582618 -0.046181753 -0.18612307
-0.07366257 -0.010597405 -0.03754765 -0.025803722 -0.050335724 -0.010679174 -0.052652515 -0.021164952
-0.033859547 -0.014375952 -0.0645565 -0.04734066 -0.014473485 -0.10486073 -0.0450843 -0.09026573
-0.032498162 -0.053245515 -0.026634643 -0.0285875

StatefulPartitionedCall/model/tdist_0/dense/MatMul/ReadVariableOp:0 f4 [6, 100]
00000000: c9f9 363f 034c d63e e05d 94be b519 81bf
00000010: 7068 81bf e2bd 3dbf 5163 3f3e c90d a03e
00000020: 4233 5fbe a096 0c3f fa12 803f 3d90 113f
00000030: 96cc 23be 7b47 e83e a08f 1b3d 425b 6dbf
00000040: b4ef 513f 9cff 79bf ba66 d33e e327 05bf
00000050: 09fe 14bf 888e 573f 3a47 12bf 0264 56bf
00000060: 7e36 503e bc7c 6e3d e18d 6d3f c2f2 1b3f
00000070: 5012 4a3f eaa1 8fbf 975e aabd 791f 48be
00000080: 7b00 7f3f 4769 55bf aa04 ffbb 0fac d6be
00000090: ded0 a1be 2e70 95be 93e0 5abf 85ec 7ebf
000000a0: b5e5 32be afb9 fbbe aa2a f83e fdcd 20bf
000000b0: b703 dcbe 9468 28bf 9e1c 0f3d 98e8 d53d
000000c0: 7ce0 85bf 523f 6ebf bb2a f1be ccaa 513f
000000d0: 60a3 44bf 4322 5d3f 90c4 f13d cd15 dd3e
000000e0: cc1f 9e3e de8d 09bf 6fa0 91bf a9bd 9abd
000000f0: d2ff f3bd 9c19 25bf ecb7 473f 73fd 86bf
00000100: cfcb 263e d17d 263f 5452 993a 6ee8 cfbe
00000110: c473 fa3e a117 d0bc f8ca 20bf b7bd 5bbe
00000120: 06c6 8abe 230d 75bf 8d47 813e c456 28be
00000130: 32a6 0a3f 36f9 2cbf 2c85 23bf 346c 503f
00000140: 01ce f8be aa06 c03e 2751 66bf a793 b23e
00000150: a54a b23c bf02 84bc bc87 143f 61f2 64bf
00000160: 2e2e 693d 73e7 213f 4c0c 5dbf fb43 373f
00000170: b9ee b8be 93f3 b6be 4a1e eb3d c991 e73e
00000180: d447 4bbe 34b6 5dbe 0ef3 5dbe fc00 f6bd
00000190: 8910 b9be 381f f93e 0dbd adbe 7be1 133f
000001a0: c94d 20bd ade7 7e3d be8a fabe 20ce 993e
000001b0: e182 2fbd 67ea 3abf bf71 1b3f 2e4b 80be
000001c0: 3f97 4bbb 2a1d cc3e 894e cdbe 710c d83e
000001d0: f9f8 fc3e 2bb1 bc3e 50d1 1f3f a92c d63e
000001e0: e177 113e 7838 373e 5f3d 413e 5c5d c63b
000001f0: 847f c1bc 6d27 113f 0c47 00be 5233 13bf
00000200: a594 36bf 0ac2 1c3f d557 0bbe 54d0 4cbe
00000210: 0eda f83e bc99 4a3f 7e43 48bf 6b53 d73e
00000220: 0ef7 34bf 6547 f03d 4852 16bf 0d4c 4abe
00000230: 4f85 efbe f5b7 943e 091c 943e 148b 833d
00000240: f308 ad3c 4fbe f1be e40c 36bd cd8c a53c
00000250: c803 2cbf 68de 3abd b69c af3e 0352 26be
00000260: 0a15 f8bc b3e9 193f ed33 043e e75e 6f3e
00000270: 9d49 d3be 3ef9 d03e 784a c1bd b03d 1c3f
00000280: bfba 47bf 64d2 e0bc 2884 9c3e 6a34 b5be
00000290: 1c3b 3bbe de43 b4be 70ef e73c d61f 8c3e
000002a0: 3701 093e ccab ec3e 330c 33bf c2fd 9bbe
000002b0: bc1a bebe 3ed8 3a3f 491a 94bc fb39 663f
000002c0: c75a b8be 08f7 acbb f083 bf3e d6f8 0e3f
000002d0: 3025 98bd e5aa 82be 3d44 0fbf 7521 12bf
000002e0: af0d 703e 09c3 c9be 0e9c 51bf 4cbc 1b3f
000002f0: dbe5 11bd d688 babe 0894 243c 2e48 043f
00000300: 7005 81bc 5a99 4bbf 95ce 243f 0f99 413f
00000310: 38e6 82bc 8e95 873e 398c 343f 83ae af3e
00000320: 76bf 52be afd7 7d3e e85c 553e af9b 9b3d
00000330: b99a 143f 9a85 9cbf f805 36bf c51a 593f
00000340: 6d15 2cbf 05a4 56be cb43 55bd 0be8 693f
00000350: 4e13 dbbe 3aa9 2abf 5069 76be 50b0 76be
00000360: 10aa 17be 02fa 543f 729f 773f ec11 3d3e
00000370: 8c4e 98bf f2f5 3a3f 5dcc 11bf aa26 3b3f
00000380: fb3b 20bf 11ed 5c3f fbb2 fdbe bbc3 09bf
00000390: ebe1 163f 1eba af3e fe51 6abb bedf 043f
000003a0: f7fc 043e a544 2d3e 03f1 b23e 6375 223f
000003b0: 9c25 913c caf7 6ebf 5854 0cbf be02 4e3f
000003c0: 3703 6a3f f603 ce3d efec b03e 89b8 ecbd
000003d0: 184c 673c 08d0 de3e 37b6 d93e 82c2 b33e
000003e0: 4c2a 233f 16c0 1d3f 7386 9c3e 1831 793f
000003f0: 958d 1f3f 9025 3bbf aaa6 723f 7845 2b3f
0.7147489 0.41854867 -0.2897787 -1.008597 -1.0109997 -0.74117863 0.1869023 0.31260517
-0.21796897 0.54917336 1.0005791 0.56860715 -0.15996012 0.45367035 0.03797877 -0.92717373
0.8200638 -0.97655654 0.41289312 -0.5201399 -0.58200127 0.8420186 -0.57139933 -0.8374635
0.20333287 0.058224425 0.92794615 0.60917294 0.7893419 -1.1221287 -0.08318823 -0.19543256
0.9961011 -0.83363765 -0.0077825384 -0.41928145 -0.31604666 -0.2918715 -0.85498923 -0.9957965
-0.17470439 -0.49165103 0.4847005 -0.62814313 -0.42971584 -0.65784574 0.0349394 0.10444754
-1.0459132 -0.9306537 -0.47102913 0.8190124 -0.7681179 0.86380404 0.118050694 0.43180695
0.30883634 -0.537321 -1.1377085 -0.07555706 -0.11914028 -0.644922 0.7801502 -1.0546097
0.16288684 0.6503573 0.0011697509 -0.40607017 0.48916447 -0.025401892 -0.62809706 -0.21459089
-0.27104205 -0.9572317 0.252499 -0.16439348 0.54159844 -0.67567766 -0.6387508 0.81415105
-0.48594669 0.37505084 -0.8996758 0.34878275 0.021764109 -0.01611459 0.58019614 -0.8943234
0.056928806 0.6324379 -0.8634689 0.71588105 -0.3611963 -0.35732707 0.114803866 0.45228413
-0.19851619 -0.21651536 -0.2167475 -0.120119065 -0.36145428 0.4865663 -0.33933297 0.5776593
-0.03913668 0.062232662 -0.48933977 0.30040073 -0.042849425 -0.7301392 0.6072044 -0.25057358
-0.0031065491 0.39866 -0.4009898 0.42196992 0.494087 0.36853918 0.6242876 0.41830948
0.14205886 0.17892635 0.18871067 0.00605361 -0.023620375 0.56700784 -0.12527102 -0.57500184
-0.71320564 0.6123358 -0.13607724 -0.20001346 0.48603863 0.7914083 -0.78227985 0.4205583
-0.70689476 0.117323674 -0.587193 -0.19755574 -0.46781394 0.29046598 0.2892764 0.064230114
0.021122431 -0.47215506 -0.044445887 0.02020874 -0.6719327 -0.04562226 0.34299248 -0.16242222
-0.03028347 0.6012222 0.12910433 0.23376046 -0.412671 0.40815157 -0.09438032 0.6103163
-0.78019327 -0.027444072 0.30569577 -0.3539155 -0.18284267 -0.3520803 0.028312415 0.2736804
0.1337937 0.4622482 -0.6994049 -0.3046704 -0.37129772 0.7298621 -0.01807894 0.8993222
-0.36006758 -0.005278472 0.37405348 0.55848444 -0.07428968 -0.25521007 -0.559635 -0.570823
0.2344272 -0.39406613 -0.81878746 0.60834193 -0.035619598 -0.36432523 0.010045059 0.5167264
-0.015749663 -0.7953087 0.6437772 0.75624174 -0.015978917 0.2648129 0.7052646 0.3431283
-0.20580849 0.24789308 0.20836222 0.07598054 0.5804859 -1.2228272 -0.7110286 0.8480647
-0.67220193 -0.20961006 -0.052066606 0.91369694 -0.42788166 -0.6666447 -0.24063611 -0.24090695
-0.14810967 0.8319398 0.9672767 0.18463868 -1.1898971 0.7303153 -0.5695246 0.7310587
-0.6259152 0.86299235 -0.49550614 -0.53814286 0.58938473 0.34321684 -0.0035754438 0.51903903
0.12987123 0.16920717 0.34949502 0.6346037 0.017718129 -0.93346846 -0.548162 0.80472934
0.91411155 0.10059349 0.34555766 -0.11558635 0.014117263 0.4351809 0.4252183 0.35109335
0.63736415 0.61621225 0.30571327 0.97340536 0.6232541 -0.7310419 0.9478556 0.66902876

StatefulPartitionedCall/model/tdist_0/dense/BiasAdd/ReadVariableOp:0 f4 [100]
00000000: de7e adbe a5cc 20be c8fc 19be 4e1b 833c
00000010: 704a a4bd d5c6 f03d 080c 46be 15bd 04be
00000020: fa2f 18bd eb7c 6fbe 45c2 20be 96ec 24be
00000030: cd43 c9bc 4ad0 cfbd 6f11 86bd 8a51 8fbd
00000040: abb8 74be caef 643d d36f d5bd f334 35bd
00000050: 9553 043e 464b 51be 6adc b43d 5f04 613e
00000060: 359b b3bd ceed 09bd 03df bcbd dee2 36be
00000070: 7a23 0abe 94f3 e83c f1df 87be 10ad 28bd
00000080: eea5 2bbe 2c26 27bc 16bc 8fbe 8242 2fbe
00000090: 5045 533c 5be8 6dbd d3a2 2b3b 0430 213d
000000a0: 7b57 b43c af83 1a3e 1b9f ecbd 9d94 f83e
000000b0: b19c 623e c2e8 223e 80e0 90be dc95 07be
000000c0: f224 47bd 707b 5e3d 16a9 5fbd 133f e3bd
000000d0: b5dc cb3d c704 8fbd f049 66be 4701 ccbd
000000e0: 00aa 9fbe ef8a 103e b6e0 05bd 4656 99bd
000000f0: ab76 cdbd 8c27 453e 4991 35be 6530 2ebd
00000100: bcab 01be 778b 29be cefe 96bd 791f e6bd
00000110: 6cf3 26be bd6a 32be 3848 dfbc f337 6e3d
00000120: 62f2 2dbe af1e 7aba 5ab7 26be 6808 0ebd
00000130: 24de 11be 4fa5 7abd 4817 b8bd ec45 88be
00000140: 532d 603d 3d7f 48be ba0d f0bb 44a5 8dbe
00000150: 10d6 51be 51a0 47bd 34da 0ebe 0aa0 623c
00000160: a333 fcbd e9ac 0abe aaa4 003f 07dc 3abe
00000170: 1b66 1cbd 2382 cabd 03e3 1bbe 849f 99be
00000180: 5b02 83bd df0d 1a3e 7703 03bd 1f4b 21bd
-0.33885854 -0.15703066 -0.15037835 0.01600423 -0.0802201 0.11756674 -0.19340527 -0.12962754
-0.03715513 -0.23387496 -0.15699108 -0.16105875 -0.024568463 -0.1014715 -0.06546294 -0.06997974
-0.2389857 0.055892743 -0.104217194 -0.04423995 0.12922509 -0.20438871 0.08831103 0.21974324
-0.08769838 -0.033674054 -0.092222236 -0.1785998 -0.13490096 0.02843646 -0.2653804 -0.04118067
-0.16762516 -0.010201972 -0.28073186 -0.17115214 0.012894943 -0.05808292 0.002618958 0.039352432
0.02201437 0.15089296 -0.115537845 0.48550883 0.22130086 0.15909103 -0.2829628 -0.1324076
-0.04861922 0.054316938 -0.054604612 -0.11096015 0.09954206 -0.06983333 -0.22489142 -0.09961181
-0.31184387 0.14115499 -0.032685004 -0.074871585 -0.100324 0.19253367 -0.17731203 -0.04252662
-0.12663168 -0.16557108 -0.07372819 -0.11236472 -0.16303796 -0.1742353 -0.027256116 0.058158826
-0.16986993 -0.00095413154 -0.1628088 -0.034675986 -0.14244896 -0.061192807 -0.089888155 -0.26615846
0.054730725 -0.19579788 -0.007325855 -0.2766515 -0.20491815 -0.048736874 -0.13950425 0.013832102
-0.123145364 -0.13542522 0.5025126 -0.18247996 -0.038183313 -0.09888103 -0.15223317 -0.30004513
-0.06396934 0.15044354 -0.031985726 -0.03937828

StatefulPartitionedCall/model/output/MatMul/ReadVariableOp:0 f4 [100, 2]
00000000: fae8 d93c 4e24 84bd 94bf 173e 6034 c23d
00000010: 7a6f ddbc a6ab 75bc 8da1 733c 638f 22bd
00000020: eb62 2a3e 1e43 433e 0d1b a4bd 9f1b 47bd
00000030: df55 2dbe 8b30 2fbe b6f2 a13d dc32 8e3d
00000040: c4e3 74bc 4038 eeb8 fb73 a13d bfd1 2c3e
00000050: 0c09 5a3c 3469 d93a fe3d 3ebe 7b8a 303b
00000060: 6de0 b8bd 9c25 9f3d 74d7 3fbe 9a5d 45be
00000070: 80d3 acbc 6a51 e9bc bf37 a5bd 0b93 4d3e
00000080: 218a 2e3d 6e31 4c3d 4fb0 1ebe 7de0 f6bd
00000090: 8f84 89bd b1dc 91bd 83bd 983d 42c9 113d
000000a0: 434d e8bd 9632 3cbb b6d0 7b3d 4540 e6bd
000000b0: eac0 083e 33d2 b53d bf3a 0f3e 0d88 ab3d
000000c0: 2cd1 da3d 8fc8 44bd e4fa 27be 23da 03be
000000d0: 6cf1 11bd 6f8d 65bd 96c4 bb3d cef1 8f3d
000000e0: 53f1 9dbd d499 46be fd76 52bd 98d5 bc3a
000000f0: 08e5 59be e29a 123c c2e5 49be e254 42be
00000100: 89f2 38be c939 58be 006a d83d afcd bd3d
00000110: b79a a0bd 915a 053e 0a40 483e e94f 233e
00000120: 25da 393e a94d 413e 2921 b43d 95c2 d23d
00000130: 297b 413d 6c2f 4d3d f393 08be 2bbe 523d
00000140: 7a8e 743c b561 113e 7721 e2bc 6a2d b0bc
00000150: b68d 153e ef31 7f3d bf1c 06be bd09 18be
00000160: ff95 f73c e80b e73d 222f cfbd 722b 03be
00000170: 590d c93d 42bf d33d 7e6a 8b3d 81aa ae3d
00000180: 5409 fc3d defa 9ebc d3f4 0fbe 418b 14be
00000190: 303e 42bb 9ea5 c43c 3fba f53c 534a f03c
000001a0: 1259 30be a3b2 29be 5e94 aebd 9d01 71bd
000001b0: 5be7 a9bd 06b1 a6bd 4bd6 863d 3258 4d3d
000001c0: 259d 793d b42a 9b3d c6cc 06bd a58e 6d3d
000001d0: 9077 3abe b48b f5bd fd6d 10be e4eb 043c
000001e0: bc61 3ebd cc66 37bd 98d8 903d a530 8c3d
000001f0: 7552 263d bc8c 463c 757e 813d e84a e8bb
00000200: 2b42 2ebe 1720 9b3c 74f4 7abd a1e3 66bd
00000210: a919 753d f7a7 403d 8731 cfbc b057 ecbc
00000220: d49b 70bd a670 61bd ca38 c1bc d98a e9bc
00000230: 4024 533d cf31 803d 3479 23be 62e0 19be
00000240: 162d 1c3d 7ce0 d13d c31a 30be 90db efbd
00000250: 8f78 e2bd 4fbe b4bd 5686 3bbe 7074 43be
00000260: 4d6c a83d a7b1 b83d a965 83bd be38 52bd
00000270: 2b0f fa3c 86ce b0bd 9b4f 093e 37e7 063e
00000280: 3e03 dd3d 0510 0d3e 4d0e 393e 3ff0 403e
00000290: 27ef 1e3d f90a ac3a 0912 903d e20d c63d
000002a0: c7e7 3f3e 2828 403e 4231 59be 5438 21be
000002b0: 7327 163d 9623 2a3d 2d6b d5bd 0647 cfbd
000002c0: 4c93 6fbe 67a6 55be 57c6 ccbc ded1 dabc
000002d0: d779 dabd 56c5 72bc 18e9 9d3d 61e7 d93d
000002e0: 4c1c ffbb 87cf c23b 5499 ed3c 0d0d d63c
000002f0: 8216 0cbe 70ba 1ebe dc89 19be 86f6 a0bd
00000300: 4bea 183d f5bc 9b3d 9254 b9bc 0471 90bd
00000310: ca95 203e d5be 0c3e dcf3 343e f245 2e3e
0.02660035 -0.06452237 0.14819175 0.09482646 -0.027030695 -0.014994537 0.01487006 -0.039687525
0.16639297 0.19068572 -0.08012972 -0.048610326 -0.16927288 -0.17108361 0.079076216 0.069432944
-0.014946882 -0.00011359202 0.0788345 0.16876887 0.013307821 0.0016587139 -0.18578336 0.002693801
-0.09027181 0.07770845 -0.18734533 -0.19273987 -0.021096945 -0.028481204 -0.08067273 0.20075624
0.0426122 0.049851827 -0.15496944 -0.120545365 -0.06714737 -0.07122172 0.074580215 0.035592325
-0.113428615 -0.0028716675 0.06147834 -0.11242727 0.13354841 0.08877983 0.13987254 0.08375559
0.106844276 -0.04804283 -0.16404301 -0.12876181 -0.03563063 -0.056043085 0.09168355 0.070285425
-0.077120446 -0.19394618 -0.051383007 0.0014406918 -0.21278775 0.00894806 -0.19716552 -0.18977693
-0.1806127 -0.21115793 0.10567093 0.09267747 -0.078420095 0.1302283 0.19555679 0.15948452
0.18149622 0.18877281 0.08795387 0.1029102 0.047236595 0.050094053 -0.13337688 0.05145089
0.014926547 0.14197429 -0.027603848 -0.02150603 0.1460484 0.06230348 -0.13096903 -0.14847465
0.03022289 0.11281568 -0.10116412 -0.12809542 0.09816999 0.10339214 0.06807421 0.08528615
0.12306467 -0.019406732 -0.14058237 -0.14506246 -0.0029639117 0.024004754 0.029996036 0.029332316
-0.17221478 -0.16572051 -0.085243925 -0.05883943 -0.08296081 -0.08139233 0.06583842 0.050132938
0.06094088 0.07576504 -0.03291013 0.057997365 -0.18209672 -0.11989537 -0.14104457 0.008112881
-0.046479926 -0.04477577 0.07072562 0.06845216 0.04060598 0.012118515 0.06322948 -0.0070890076
-0.17017429 0.0189362 -0.061268285 -0.056369428 0.059838925 0.047035184 -0.025292171 -0.028850406
-0.05874236 -0.05503907 -0.02358665 -0.02850859 0.051548243 0.062595 -0.15964204 -0.15027002
0.038128935 0.10247895 -0.17197709 -0.117118 -0.11058151 -0.08825361 -0.18312964 -0.19087386
0.08223782 0.090182595 -0.064158745 -0.051323645 0.03052481 -0.08633141 0.13409273 0.13174139
0.10791634 0.13775642 0.18071862 0.18841647 0.038802292 0.0013125829 0.0703469 0.09670617
0.1874076 0.18765318 -0.21210197 -0.15744144 0.036658715 0.041537844 -0.10420833 -0.101209685
-0.23396033 -0.20864259 -0.02499692 -0.0267114 -0.1066777 -0.014817556 0.07710475 0.10639835
-0.0077853557 0.0059451493 0.029003777 0.02612927 -0.13680461 -0.15500808 -0.14993995 -0.078595206
0.037332814 0.076044 -0.022623334 -0.07052806 0.1568214 0.13744672 0.1767115 0.1701887

StatefulPartitionedCall/model/output/BiasAdd/ReadVariableOp:0 f4 [2]
00000000: ab74 953a 4180 95ba
0.0011402568 -0.001140602

StatefulPartitionedCall/model/dense_2/MatMul/ReadVariableOp:0 f4 [100, 100]
00000000: 5dd8 98bd 29b9 07bd 2eee 223e cee0 27be
00000010: 3bb6 ed3d c947 c7ba 52b3 10bd 12dd 92be
00000020: aff8 ebbd 0653 cb3d d97d 8abc efed 463a
00000030: 0fb0 453e 9f05 41be d940 5a3e 07e1 96bd
00000040: e2f7 293e b175 6fbe 9470 62be 6321 65be
00000050: ff06 7dbe 32fb 2e3e 9e30 f33d ee33 76bd
00000060: 454d 40be 5b68 453e 187f ec3d 1375 86bd
00000070: defd 96bd 4293 49be 4b82 f53d 9331 6a3b
00000080: b1c2 1b3e bf5b 69be 605f 3cbe 58e0 283d
00000090: bf27 3e3e 89fc 98be cecc 3dbe 165f 57be
000000a0: 8dd1 3cbe 1268 46bc de94 6ebe d52c 5fbe
000000b0: 1d37 6bbe 8689 6ebd f76f a7bc 282f f2bd
000000c0: 5ed7 583e 4293 7fbe dc65 4c3e c22f 973d
000000d0: 86d0 eebd 3b16 78be 6225 25be 8323 273d
000000e0: 4a77 2bbe cbdc 5abc c9f1 72bd d0f0 e23d
000000f0: 55e3 48bd 093b 0c3e ddc1 ad38 04a4 103e
00000100: 1cf9 38be bd7b 34bd 6ff7 703e ae41 47be
00000110: c1be 573a 5dc8 033e f45c 493e a566 233e
00000120: f305 5a3e 7945 bdbd c1fd 55be dccd 173e
00000130: 2537 6ebd 8fce f03d bc41 b93d 8446 293e
00000140: 3fc8 dabd 31fc 45bd a61a 9ebe 1409 2a3e
00000150: 7592 9bbd 2977 103e 3799 163e 6752 00be
00000160: f502 20be b832 30be f7c4 77bd 0d9c 143e
00000170: 93f6 1ebe 7a41 7ebd 220f f9bd 9bb0 e63c
00000180: defb c93d 3faa 07be b914 e4bd 8a76 9dbd
00000190: dab9 95bd 1789 3b3e a4ba dfbd 7427 713e
000001a0: 8018 96be d5b0 b6bd f85c 6f3e e56e 6c3e
000001b0: f77e 62be 0fa1 123e a3ff 753e ffcd 5bbd
000001c0: 7eba e5bd 8beb ea3d eaea 45be e2e9 d33d
000001d0: bf9b 3abe 0cef 7fbe 9909 7a3e 68d5 00bd
000001e0: 0d16 193e b5cd 31bd ca84 423e 4a97 6bbe
000001f0: 590a 05be 40b9 77bb c0af 193d 916c 493d
00000200: 52ea 5b3e bd6f 693e 9370 1ebe 26d3 ebbb
00000210: 3ae1 543e 851f c33d e6b7 b03d 0232 42be
00000220: c88c 3cbe 113d 56be 4f5c 4a3e d11a 213e
00000230: 1a41 13be 00e8 473e 12e9 b9bd 90ee a03d
00000240: 9a32 763e 142a 7a3d 254f 9c3d 5705 09bd
00000250: 601a 07be 7741 283b a437 e7bd e8ce 06bd
00000260: 44b2 80be 22c9 fcbd 6a94 ed3d f96a 7f3c
00000270: 0ff3 483e a6f7 4dbe 1dfc c43d 74ac 543d
00000280: f437 fdbd bd92 1abb 0325 d63b fcb9 6c3c
00000290: 7551 163e a176 473e 4eb9 063e 0a35 f83d
000002a0: b102 acbd f7c2 ce3d 70ec 3b3e 6571 6fbd
000002b0: 02ad 093d 664b aa3d 9fe7 ac3d befb a63d
000002c0: 0e78 3e3d 7387 6b3e c8f3 6dbe 88da 9a3d
000002d0: 5a42 663e b6e3 9e3d 82e2 8abc 3511 4fbe
000002e0: 1fe3 13be 1b9d f23d 4809 0abe d492 f53d
000002f0: 269c 8cbd cb6b b73d ea8c 4e3e 8441 203d
00000300: 285a 7cbe fa40 0b3e 5d2f 6cbd 7dd8 2d3d
00000310: 1332 983d 6c1b 1abd e2fb 423d 43ff 5fbe
00000320: d087 70bd 019f 613e 8d2a a63d 1bb7 dd3d
00000330: 90d1 cd3d c2f5 2dbe ee35 cc3d ac6b 60be
00000340: bc57 7abc 5ce2 1d3d f9e9 4a3c 7c7a 9c3d
00000350: 38c4 b23d eeb4 1bbe c008 503e eaae 8abe
00000360: b63c 8bbc 6046 a43d a8d5 cdbd 60bf 2fbe
00000370: b3b8 483e 8461 d73d 9550 153d a938 1f3e
00000380: 2954 1e3e bfa1 f4bd 8e84 37bc fa0e 243c
00000390: 4048 0ebe ea16 9c3d a1dc d53d 9206 0ebe
000003a0: 596f 54be 9eb8 c2bd 6f34 8dbc 5e63 b1bd
000003b0: 1710 d5bd b64b 42be f7f1 85be 6a5e ccbd
000003c0: 92b5 303e 268c f33d 90b8 a23d d9ae 67be
000003d0: 7667 65be 2137 15be 46fb 60be 9a64 88bd
000003e0: b9ff 00be 45ee 043e a064 18be 3038 523e
000003f0: 7233 d5bd 6529 6b3e f012 8a3b 3b5a ae3d
-0.07463143 -0.033135567 0.15911171 -0.1639435 0.11607023 -0.0015203889 -0.035327263 -0.28684288
-0.11522042 0.09927945 -0.016905712 0.00075885555 0.19305442 -0.188498 0.213138 -0.07367139
0.16598466 -0.2338474 -0.22113258 -0.22376017 -0.247097 0.17088011 0.11874507 -0.060108118
-0.18779476 0.1927809 0.11547679 -0.06565299 -0.0737264 -0.1968508 0.11987742 0.0035735115
0.15210988 -0.22788905 -0.18395758 0.041229576 0.1856985 -0.2988017 -0.18535158 -0.21032366
-0.18439312 -0.012109773 -0.23298976 -0.21794446 -0.22970243 -0.05823662 -0.020439131 -0.118254006
0.21175906 -0.24958518 0.19960731 0.07382156 -0.116608664 -0.2422723 -0.16127542 0.04080535
-0.16744724 -0.013358305 -0.059312616 0.110810876 -0.049044926 0.13694395 8.285393e-05 0.14125067
-0.18063778 -0.04406332 0.23531888 -0.19458649 0.00082300237 0.12869401 0.19664365 0.15957125
0.21291332 -0.092417665 -0.2089758 0.14824623 -0.05815806 0.11758148 0.09045741 0.16530806
-0.10682725 -0.04833621 -0.30879706 0.16605026 -0.07596294 0.14107956 0.14706884 -0.12531434
-0.15626128 -0.17206848 -0.060490575 0.14512654 -0.15523748 -0.062074162 -0.121610895 0.028160384
0.09862493 -0.13248537 -0.11136765 -0.07688625 -0.07310839 0.18314014 -0.10924271 0.23550206
-0.29315567 -0.08920447 0.23375309 0.23089178 -0.22118746 0.14319251 0.24023299 -0.05366325
-0.11217211 0.114707075 -0.19327894 0.10347344 -0.18223475 -0.24993533 0.24417724 -0.03145352
0.14949818 -0.04340907 0.18995968 -0.23006931 -0.12992229 -0.0037799627 0.037521124 0.049175803
0.21476105 0.22796531 -0.15472631 -0.0071968017 0.20789042 0.09527496 0.08628826 -0.18964389
-0.18413079 -0.20921732 0.19761775 0.15732886 -0.14380303 0.19522095 -0.09077658 0.07858002
0.2404274 0.061075285 0.07632283 -0.033452358 -0.13193655 0.0025673786 -0.112899095 -0.032912165
-0.25136006 -0.123430505 0.11600573 0.015589469 0.1962397 -0.20114002 0.09618399 0.051922277
-0.12364188 -0.0023585998 0.006535174 0.014448639 0.14679511 0.19478847 0.13156626 0.121194914
-0.08398951 0.1009578 0.18351912 -0.05845775 0.03361226 0.08315162 0.08442616 0.08153485
0.04650121 0.23000889 -0.23237526 0.07561213 0.22486249 0.07758276 -0.01695371 -0.20221408
-0.14442109 0.11846372 -0.13480103 0.11990896 -0.068657205 0.08956107 0.20170942 0.03912498
-0.24643767 0.13599005 -0.057662357 0.042442787 0.07431426 -0.037623808 0.047603495 -0.21874718
-0.05872327 0.22033311 0.08113585 0.1082594 0.100497365 -0.1698828 0.09971224 -0.21916074
-0.015279707 0.03854595 0.012384885 0.076405495 0.08728832 -0.15205738 0.20315838 -0.27086574
-0.016996723 0.080212355 -0.10050517 -0.17162848 0.19601707 0.105166465 0.036453802 0.15548958
0.15461792 -0.11944913 -0.011201037 0.010013336 -0.13894749 0.07621558 0.10442472 -0.13869694
-0.20745601 -0.09507869 -0.017236916 -0.08661531 -0.104034595 -0.18974194 -0.26161167 -0.099789456
0.17256764 0.118919656 0.07945359 -0.22625293 -0.22402748 -0.14571811 -0.21970853 -0.06659813
-0.1259755 0.12981518 -0.14882135 0.20529246 -0.10410203 0.2296501 0.0042136833 0.08513304

StatefulPartitionedCall/model/dense_2/BiasAdd/ReadVariableOp:0 f4 [100]
00000000: d2f6 0ebe 4cf1 85bc 3981 3dbd f37b 69bd
00000010: ae8d 48bd bb4e aebd 3386 f7bd 43b8 06be
00000020: 4de0 c4bc 1f1c bfbd d50f 48bd d86d 81be
00000030: c92c b93d 47f6 f0bd 7605 0fbe 6c0d ddbd
00000040: 02e4 73bd 6e4f 15be cd5f 2ebe deb5 bbbd
00000050: 9645 d5bd 3085 d1b9 f2d7 c2bd db78 09be
00000060: c4e7 d0bc 22a8 83bd ec4d 7ebd 5ef8 71bd
00000070: 8c5d 4bbe 7498 efbd 1f23 a3be defc 32be
00000080: 0446 22be 170c 65bd cc48 87bd ae42 9fbd
00000090: d094 56be 1edf 4dbe 65b8 85be 6630 01be
000000a0: 21cb 80be 968c 47bd bc3d e5bc bae6 39be
000000b0: 7948 f8bd dcab a7bd c031 24be d5c8 6ebd
000000c0: 1a15 10be 708b 59be 8eae 27be c981 24be
000000d0: 9c70 09be 21d9 1ebe 0aed 92bd 4e95 86bd
000000e0: 8fab bbbd f356 42be a3b3 81be d53b c13d
000000f0: 460c 1bbe a485 d3bc 886c 33bd 814e 45bd
00000100: a18e 30be 6817 f6bd c396 8cbd 19f2 85bd
00000110: 7bb5 f1bd 5b15 debb 8cc9 3fbd 58bf 54bd
00000120: db88 18be 998c 4abe 6f91 debd c0fa 47be
00000130: af14 58bd 2adf a4bc 604e 88bb 4731 e9bc
00000140: 0bc7 5abd 2e4b 99bd 30c9 38be ed8c 46be
00000150: ea79 93bc 6d94 a0bd f539 e0bd 78b5 b1bd
00000160: 82b3 0bbd e8cf 44bd 2ab5 aabd 3b70 32bd
00000170: 4c49 51bd 41f1 4bbe 6a8a 35be d714 a8bd
00000180: bbdc aebd 9cb1 bdbc 488f d5bd 92bc b4bd
-0.13961342 -0.01635041 -0.046265814 -0.057002973 -0.04896324 -0.085111104 -0.12086143 -0.13156228
-0.024032736 -0.093315355 -0.048843224 -0.25279117 0.09041745 -0.11765724 -0.13966927 -0.10793576
-0.059543617 -0.14581081 -0.17028733 -0.09165548 -0.10413663 -0.0003996282 -0.095138445 -0.13425009
-0.02550114 -0.06428553 -0.06208603 -0.059074752 -0.19859904 -0.11699 -0.31862733 -0.17479274
-0.15847021 -0.055919733 -0.06605682 -0.0777639 -0.20955205 -0.20104644 -0.26117244 -0.12616119
-0.25154975 -0.048718058 -0.027983539 -0.18154421 -0.12123198 -0.081870764 -0.16034603 -0.058296997
-0.1407055 -0.21244597 -0.16375181 -0.16065134 -0.13421863 -0.15512516 -0.07174118 -0.06571446
-0.091635816 -0.18978481 -0.25332364 0.0943524 -0.151414 -0.02582056 -0.043804675 -0.04817057
-0.17241909 -0.12016183 -0.06864693 -0.06540317 -0.11802193 -0.006777448 -0.04682307 -0.051940292
-0.14895956 -0.19780196 -0.10867583 -0.19529247 -0.0527541 -0.020125944 -0.0041597337 -0.02846588
-0.05341248 -0.074850425 -0.18045497 -0.19389696 -0.01800247 -0.0784081 -0.109485544 -0.086771905
-0.03410674 -0.048049837 -0.083353356 -0.043564063 -0.051095292 -0.1991625 -0.17728582 -0.082071
-0.08538195 -0.02315598 -0.10427719 -0.088250294

StatefulPartitionedCall/model/dense_1/MatMul/ReadVariableOp:0 f4 [100, 100]
00000000: 4df9 cb3d c61d 4bbe 9dc0 37bd d743 a2be
00000010: fe01 bc3c 6f1f d83d 2b76 82be d370 adbe
00000020: 9f59 cf3d c84d 563e ccc4 943d e39b 27be
00000030: 54e1 26be 86da 8bbe c484 0abe 3ae7 84be
00000040: 5dc1 41be ef2f 383b 9eab 01be 7e43 f1bd
00000050: a6da febd c7c2 8fbe 45f9 0cbe 53f3 7cbe
00000060: 68b5 79be 1584 87be e4a3 a0be 3fc7 5dbe
00000070: 8259 93be 0ebc f0bd 9b66 2e3e 8dd1 66be
00000080: 73ec 23bb 3429 063e cf49 d6bd eef7 963c
00000090: 7a49 303e 354c 76bd 14b9 bebd 2748 9cbe
000000a0: 851a b9bd f240 2abe 4c3b 95be c117 bbbc
000000b0: cfc8 083e c165 ea3d 32d1 953c 06b4 dabc
000000c0: ce38 a13d cf51 9c3c 8a47 22be abb4 18be
000000d0: 30ab 463c 58f0 113c 339a d63d 298c 11be
000000e0: c555 3ebe 1de3 59bd 0e7d b83d b59c 42bd
000000f0: e0d1 193d d680 5abe 771b 0abe 1dd7 c13d
00000100: 614b f0bd 57f4 dbbd 42bb 723b 546e 7abe
00000110: e123 043d 6021 d83b ebb6 4ebe 3941 65bd
00000120: 55b8 b3bd 6028 07be 8030 f3bd bf76 a43c
00000130: 95bb 0cbd e35c 983d 9ad1 a0bc da7a 3ebe
00000140: e1df a0bd 0310 83be 73b2 42be 005b 92bd
00000150: 5ffd 2dbd e77b 653d 301a b0bd d04f 57be
00000160: 0c08 2fbe bb79 9a3c 696c ce3d 7861 303e
00000170: ad9b 65be 74cd 05be 40a7 6ebe 9d14 f43d
00000180: 0308 b93c c636 1a3d 8ac3 8abe a6db 07bc
00000190: 4ae3 f3bd 34bd c1bd 512b 013e 1297 1bbe
000001a0: 9b54 a8bd b0f5 5e3e 97cb f5bd 5ecb ec3d
000001b0: 4a2c 203e 1584 2a3e fc70 e2bd ac45 1d3d
000001c0: 6edb e53d 8b27 1f3e e1e3 4a3d 80a3 043d
000001d0: ab8a d0bd 550b d33d 74f1 403e ff18 80bd
000001e0: 45be 75be 6757 2cbd 3720 3dbd 51f5 46be
000001f0: ecb4 013e d7b8 9bbd 6a48 473e 9c80 6e3e
00000200: 89ef 4fbe 8d45 a5bd 68ac a13d 39d4 43be
00000210: 3c6c 3dbe 663f 5d3e 1a1a b2bd 8e32 47bd
00000220: a3c3 eabc 1945 823d 3be7 633e f044 3abe
00000230: c253 9fbc ea80 9cbd a86c 49be e804 3dbe
00000240: 0acc c63d 9f6d 363e 2b02 b33d 800a 273e
00000250: 1780 5c3e 9a40 30be 9177 29bc 8db4 49be
00000260: 8483 ffbd 2503 513e f08a 493e 5da0 dcbd
00000270: ed12 483e e868 513e b21a fc3d 7531 16bd
00000280: d802 d43c cb6a 6cbd b61b 193e f54b fd3c
00000290: 0b50 6bbe a98c 493d 8769 de3c bea6 4fbe
000002a0: e8fa 5abe 1304 953e 5ff5 903d 944d ed3c
000002b0: 6979 113e 8e96 c0bd b525 18bc 2479 3fbe
000002c0: d7a1 2a3d 2935 7abe f706 4d3e e100 e83c
000002d0: 0dd9 0b3e c7c1 d3bd 8306 37be 7750 a0bd
000002e0: c29f 0dbe 3713 0abd e390 193e c4d4 6e3e
000002f0: 7e63 52be 4b30 473e 4055 0d3e d134 1a3e
00000300: 8b63 8dbd bf41 59bd b6f5 f53d 2f62 3b3d
00000310: fd99 cdbc 529a dc3d 9e7f 8eba 591b 49be
00000320: 8446 82be c6a1 39be fb5c c4bd 23f1 913c
00000330: 5b17 27bd ad1f 263c 62a8 0abe f980 b03b
00000340: 057f 05bd d2bc 0bbe 0cd2 cfbd 8b37 cebc
00000350: 351f 76be aa80 01bd ada8 04be 514d 33bd
00000360: 0db8 bdbd b425 88be 9352 b0bd 8d09 70be
00000370: 0ce3 263d b827 2e3d fdb4 c2bc c299 42bd
00000380: 36d7 29be 4967 a7bc 5820 05be 8560 dcbd
00000390: c9c6 fe3c 6dbd 063e fcff 55be 10f3 9abe
000003a0: 5171 81bd 634e 183e 98d6 043e 7a4b bebd
000003b0: 3f42 42be 0007 31be 3d86 afbc 6681 b6be
000003c0: 2448 37be bcdc 3cbb 8679 13be dc73 853c
000003d0: 857c 14bc 9ac7 e2bd 7f66 81bd bd3e 3fbe
000003e0: 0c3a 47be 8e57 b23b e779 24be b5e8 7fbd
000003f0: febe 2cbe aac6 8f3c 2b0b 033b 0a0f c5bd
0.0995966 -0.19835576 -0.044861425 -0.31692383 0.022950169 0.105528705 -0.2548078 -0.3387514
0.10124516 0.20928109 0.072640985 -0.1636806 -0.16296893 -0.27315158 -0.13527209 -0.25957662
-0.18921418 0.0028104743 -0.12663123 -0.11780451 -0.12444048 -0.2807829 -0.13766964 -0.24702196
-0.24385607 -0.26467958 -0.3137504 -0.21658038 -0.28779227 -0.117546186 0.17031328 -0.22540875
-0.002501276 0.13101655 -0.104632966 0.018428769 0.17215529 -0.06013127 -0.093126446 -0.30523798
-0.09038261 -0.16626337 -0.29146802 -0.022838475 0.13357852 0.11445189 0.018288229 -0.02669717
0.07872163 0.019081978 -0.15847602 -0.1491267 0.012125775 0.0089074 0.1047863 -0.14213623
-0.18587406 -0.053195108 0.09008227 -0.04751273 0.037553668 -0.2133821 -0.1348704 0.09464858
-0.117331274 -0.107399635 0.0037037884 -0.2445615 0.03226078 0.0065957755 -0.20186965 -0.055970404
-0.08775393 -0.13198996 -0.11874485 0.020076154 -0.03435858 0.07439592 -0.019631196 -0.18601552
-0.078552015 -0.25598153 -0.19013385 -0.07146263 -0.04247796 0.056026366 -0.08598745 -0.2102654
-0.17092913 0.018856874 0.10079271 0.17224681 -0.22422667 -0.13066655 -0.23305988 0.11917994
0.022586828 0.037649892 -0.2710231 -0.008292114 -0.11908586 -0.09459916 0.1261418 -0.15194348
-0.08219262 0.2177341 -0.12001722 0.11562227 0.15641895 0.16651948 -0.11056706 0.038396522
0.112234935 0.15542428 0.04953373 0.03238249 -0.10182699 0.10304896 0.18842107 -0.062547676
-0.23998363 -0.04207554 -0.0461733 -0.19429518 0.12666672 -0.07603615 0.19461218 0.23291248
-0.20306219 -0.080699064 0.07894212 -0.19123925 -0.1849832 0.21606216 -0.08696385 -0.048632197
-0.02865774 0.063608356 0.22256176 -0.1819036 -0.019449119 -0.07641776 -0.19670355 -0.18458903
0.09706886 0.17815255 0.08740648 0.16312599 0.21533237 -0.17212144 -0.010343448 -0.19697781
-0.124762565 0.20411356 0.19681907 -0.10772774 0.1953847 0.20450175 0.12309779 -0.03666826
0.025880262 -0.057719033 0.14951977 0.030920008 -0.22979753 0.04920641 0.027149929 -0.20278451
-0.21384776 0.2910467 0.07078051 0.028967656 0.1420647 -0.09403716 -0.009286334 -0.18698555
0.04165825 -0.24434341 0.20022188 0.028320732 0.13657017 -0.103396945 -0.17873578 -0.078278475
-0.13830474 -0.03370973 0.14996676 0.23323351 -0.20545766 0.19452016 0.13802052 0.1505921
-0.06903752 -0.053041216 0.12009756 0.045747932 -0.025097841 0.10771622 -0.0010871773 -0.19639339
-0.25444424 -0.18128118 -0.09588047 0.017815178 -0.040793758 0.010139388 -0.13540795 0.0053864685
-0.03259184 -0.13646248 -0.10147485 -0.02517297 -0.24035342 -0.031616844 -0.1295497 -0.043774907
-0.092636205 -0.26591265 -0.086095 -0.23441143 0.040743873 0.042518348 -0.023767943 -0.047509916
-0.16586003 -0.020434992 -0.1300062 -0.10760597 0.031100648 0.13158198 -0.20898432 -0.30263567
-0.063204415 0.14873652 0.12972486 -0.0929174 -0.18970583 -0.17287827 -0.021426314 -0.35645598
-0.17898613 -0.0028818091 -0.14401826 0.016290598 -0.009062891 -0.11073227 -0.06318378 -0.18676277
-0.19455737 0.0054425662 -0.16062127 -0.062477786 -0.16869733 0.017550785 0.001999567 -0.09622009

StatefulPartitionedCall/model/dense_1/BiasAdd/ReadVariableOp:0 f4 [100]
00000000: f25d 32be 61f1 31be fc0f 82bd 7fc7 81be
00000010: 5bd7 9ebe 00f5 e4be aa89 79be 9cec 4abe
00000020: f7aa 1abe 802a 873d c88b 16be 78a1 01be
00000030: fb72 cdbd cf14 84be ac6d 26be 49f2 38be
00000040: eed8 3ebe 6ff9 7dbc 3ad3 36be 67b9 65be
00000050: 7b81 64be c67e 86be acf5 44be e1ef f8bd
00000060: d673 0abe b819 87be 5de1 f4bd 0770 6ebe
00000070: 2bea 8bbe 7404 40bd 9f5d fdbd 8c04 1dbe
00000080: 441c 3abd e160 afbc 6c7f 83bd 801f 45be
00000090: 24a7 05be 5971 bdbd 5519 27bd c347 38be
000000a0: bf5e 37be 622f a6be d1d9 81bd 0a8f 80be
000000b0: 4f92 fcbd 94b6 febd 3f62 98bd c1e3 28be
000000c0: cad0 b1be 3257 56be 4db9 37be 7c03 a1bd
000000d0: daac 69bd 99cf 89be aebe 8bbe 0126 b2be
000000e0: 7394 79be 0d33 70be 99f5 6f3d f2f2 ccbd
000000f0: 1d2a 27be 9135 3dbe f72b 77be 5ad8 07be
00000100: d4aa c7bd 4648 2cbe 6dbd 90be 148a 64be
00000110: bf58 3ebe 5bcb f0bd c400 c4be 66f0 29be
00000120: 54a7 40be fd57 7bbe 156b 88bd 304b febd
00000130: 9c4d 56be 4c42 32be 4969 96be 9df6 b1be
00000140: 562e 15be b29d 55bd 94e7 80be 67d0 4abe
00000150: e723 dc3b 06ec 62be 98d2 90bd 8830 11be
00000160: 862e 7ebe 655d 24be b332 bdbd 0e29 16be
00000170: 1370 87be d798 41be 7400 2fbe fcdb 9ebd
00000180: ae49 8abe b739 96bd 7cd9 3dbe 9099 72be
-0.1741865 -0.17377235 -0.06350705 -0.25347516 -0.31023678 -0.4471817 -0.24368921 -0.19816822
-0.1510428 0.06599903 -0.1470176 -0.12659252 -0.100316964 -0.25797126 -0.16252774 -0.18061174
-0.1863744 -0.015501364 -0.17854014 -0.22434007 -0.22315018 -0.26268595 -0.19234341 -0.12155128
-0.1352075 -0.2638681 -0.11957047 -0.23284923 -0.27327093 -0.046879247 -0.123713724 -0.15333766
-0.045437112 -0.0214085 -0.06420788 -0.19250298 -0.1305204 -0.09250135 -0.040795643 -0.17996125
-0.17907237 -0.32458025 -0.06340373 -0.2510913 -0.12332594 -0.12437168 -0.07440614 -0.16493131
-0.34729606 -0.209317 -0.1794178 -0.07861993 -0.05704961 -0.26916197 -0.27293915 -0.3479462
-0.24373035 -0.23456974 0.05858383 -0.10007276 -0.16324659 -0.18477465 -0.24137865 -0.13266125
-0.0974938 -0.16824445 -0.2826952 -0.22318298 -0.18588541 -0.11757537 -0.38281834 -0.16595611
-0.1881383 -0.24545284 -0.06661049 -0.12416685 -0.20928043 -0.17408103 -0.293772 -0.34758464
-0.14568457 -0.052152343 -0.2517668 -0.19806062 0.006718147 -0.22160348 -0.070714176 -0.1417867
-0.24822435 -0.16051252 -0.09238186 -0.14664099 -0.26452693 -0.1890596 -0.17090017 -0.077568024
-0.27009338 -0.07335227 -0.18539995 -0.23691392
