src/BTVNanoCommissioning/data/TTBAR_REWEIGHT/hdamp_ml/mymodel12_hdamp_down_13TeV.onnx (onnx, 239317 bytes, 14 tensors)

StatefulPartitionedCall/model/tdist_2/dense_2/MatMul/ReadVariableOp:0 f4 [100, 128]
000000 47 7d d3 3c a9 66 c9 3d b8 d0 32 be d1 28 5f be
       0.025816573 0.09834034 -0.17462432 -0.21792914
000010 dc bc 10 3e ed 72 8c 3c b1 37 e2 3d e1 0b 29 be
       0.14134544 0.017144645 0.110457785 -0.16508438
000020 ce fa da 3d bb b7 14 be 2f 43 03 bc cc 9c 07 3e
       0.106923684 -0.14523213 -0.008011623 0.13243407
000030 bc 84 24 be 87 e1 97 3d a4 98 1e 3e ba 3b 50 be
       -0.16066259 0.07416063 0.15487915 -0.20335284
000040 d2 1f 3c be 94 8a ab be b3 c6 7c bd 42 94 41 bd
       -0.18371513 -0.33504164 -0.06171293 -0.04726053
000050 b6 f4 3d 3e c5 bd 19 bd 8f d1 02 be 4b 66 30 be
       0.18550381 -0.037534494 -0.12775253 -0.17226522
000060 96 90 e9 3d 86 2c 6e 3e ce 33 fb bd 36 e9 df 3d
       0.11404531 0.23259172 -0.1226574 0.10933153
000070 49 77 81 3d cb 87 5f 3e 80 60 a8 3c d3 d2 98 bd
       0.0632158 0.21829145 0.020553827 -0.074620865
000080 bb 34 13 bd a2 77 86 bd f9 6c 68 3c f1 93 0a be
       -0.03593896 -0.06565787 0.014186137 -0.13532998
000090 d9 10 ac 3d ee ad e3 3d 02 56 8d 3d a9 63 2e 3e
       0.08401651 0.11117159 0.0690117 0.17030205
0000a0 fe c8 01 be 3d 61 d8 3d e9 4e 47 3e 51 4e 2e be
       -0.12674329 0.10565422 0.19463696 -0.17022063
0000b0 a4 89 f0 3d 72 79 86 bc 8e c6 2e 3e a8 a1 79 be
       0.11745003 -0.016415332 0.1706793 -0.24378073
0000c0 ed 07 21 be d2 6f 42 be 5b 6d cd bd ef cb d1 bd
       -0.1572568 -0.18987969 -0.100306235 -0.10243975
0000d0 67 c8 a7 3c 6c 36 35 ba 29 ec d4 bc 41 e9 55 3e
       0.020481301 -0.00069127115 -0.025991516 0.2088976
0000e0 a5 a0 28 3e 97 48 0b be 04 c5 c4 bd 92 f8 01 3e
       0.16467531 -0.1360191 -0.0960789 0.12692478
0000f0 a8 d2 4c be 08 a3 2c 3e 5a 45 b8 3c 26 98 f9 bd
       -0.20002234 0.16859066 0.022494007 -0.12187223
000100 52 09 58 3c 44 44 06 3e c8 4b 92 3d 69 aa 77 3e
       0.013185816 0.13111979 0.071433604 0.241861
000110 27 0d e4 3d dd 2b 7a be 52 df 21 3e 83 9f 41 3e
       0.11135321 -0.24430795 0.15807846 0.18908505
000120 4d ad 46 3e f0 f3 48 be 94 6b 6d be 86 b5 0f bd
       0.19402047 -0.19624305 -0.23185569 -0.035085224
000130 45 23 3d 3d 46 bb 5a bd 39 ce bb bc b1 36 9e bd
       0.046176214 -0.053401254 -0.022925483 -0.07725275
000140 97 1a 87 be de 4f 23 3e 79 a0 21 3b f6 a4 fe 3c
       -0.26387474 0.15948436 0.00246623 0.031084519
000150 cc 5c 32 be 59 6b c7 bd 09 67 1b bd 7e eb 54 be
       -0.17418212 -0.09737272 -0.03794006 -0.20792958
000160 c4 55 81 be 7d 6f 51 be 07 3a de bd c8 d0 5c be
       -0.25260746 -0.20452686 -0.108509116 -0.21564019
000170 00 ff 22 be 49 24 14 be f7 47 75 be ec 16 27 3e
       -0.15917587 -0.14466967 -0.23953234 0.16317338
000180 ce ae 18 3e ce 9b e3 3c f5 8d 93 bd a7 bb fd bb
       0.14910433 0.027784254 -0.072048105 -0.007743317
000190 72 c0 d8 3c 96 cb b2 3d bf 8b 06 3e 87 59 ae bc
       0.026458953 0.08730237 0.13139246 -0.021282924
0001a0 20 27 5c bc c9 dc c4 3d c1 7c 16 3e 64 ac 50 3e
       -0.0134370625 0.09612424 0.14696027 0.20378262
0001b0 27 8a da bd 9b 35 19 3e 67 cc 68 3d 71 ae 2f bd
       -0.10670882 0.14961855 0.05683556 -0.04289097
0001c0 c8 d7 12 3e 2c a9 c3 bd 5f 9e 2e 3c 90 73 d5 bd
       0.14340127 -0.09553751 0.010657876 -0.104224324
0001d0 3c a5 18 be 4e c3 9b 3d 9b 60 59 3e c3 ac 96 bd
       -0.14906782 0.07605611 0.21228258 -0.073571704
0001e0 e7 93 21 be 59 c2 35 be ff 5e 44 3d 53 ce 14 be
       -0.15779077 -0.17749919 0.047942158 -0.14531831
0001f0 5c c0 cd bd 41 a0 3b 3d 40 5b 35 3e 88 15 3a 3e
       -0.10046455 0.045807127 0.1771059 0.18172276
000200 02 5d 54 3e 29 fa 7b be b4 92 66 bd a9 23 60 3e
       0.20738605 -0.24607147 -0.05629225 0.21888603
000210 20 91 6c 3e 1c d7 21 3e ba f8 88 3d cd cb 56 3e
       0.23102236 0.15804714 0.06688066 0.20976181
000220 61 8d 41 3d 37 92 6f be ff b7 3f be 05 07 39 3e
       0.04725397 -0.2339562 -0.18722533 0.18069084
000230 7e 31 42 be f3 80 e6 3d 0c 65 b0 3d 5b 63 64 3e
       -0.18964192 0.11255064 0.08613023 0.22303526
000240 03 12 1d bd 98 e3 f5 3c ce 80 66 be e8 38 0e 3e
       -0.038347255 0.030015752 -0.22510073 0.13888896
000250 a2 e4 58 bd aa c2 5d 3e cf cf 2f 3e 72 1c ef 3d
       -0.052952416 0.2165629 0.17169116 0.116753474
000260 c5 ad ed bd 44 a0 3c be bb cd f1 3d d6 18 f2 bd
       -0.116054095 -0.18420511 0.11806818 -0.11821143
000270 4c 5f ce bd 1d 0e 44 3e 74 b1 94 3d ba 85 01 be
       -0.1007677 0.19146009 0.07260409 -0.12648669
000280 3b ba 3e 3e 61 45 d8 bc 72 3a 1a be ef 29 02 3e
       0.18625729 -0.02640027 -0.15061358 0.12711309
000290 57 cd 88 3d ce 22 ff bd 0b 88 22 3e cf e6 1e be
       0.066797905 -0.1245781 0.15872209 -0.15517734
0002a0 6c 45 55 be d5 f0 fc bd 30 7f 83 bd 9f e6 69 be
       -0.20827264 -0.123506226 -0.064207435 -0.22841881
0002b0 48 13 51 3e 54 de 31 be 50 a7 38 3e 36 de b4 3d
       0.20417511 -0.17369968 0.18032575 0.08831446
0002c0 cd 98 ee 3d 78 f0 40 3e 51 be 8b 3d ca c0 9d bd
       0.11650238 0.18841732 0.06823409 -0.07702787
0002d0 ef 98 ce 3d 1b 9d 4e be d2 77 5b be 0b 7e 8a 3c
       0.100877635 -0.20177118 -0.21432427 0.016905805
0002e0 23 2a 12 3e b4 d9 2c 3d 75 65 ec bd 12 97 29 3e
       0.14273886 0.042199805 -0.11542789 0.16561535
0002f0 a7 10 ca bd 34 f8 5b be 3d 4d 20 3e fb 49 3b bd
       -0.098664574 -0.214814 0.15654464 -0.04572485
000300 58 b2 40 be e7 bd fc bc 46 e6 4f 3e f1 71 06 3d
       -0.18818033 -0.030852271 0.20302686 0.032823507
000310 00 93 d5 bb c3 23 71 be 68 e0 51 be fb 2f 55 3e
       -0.006517768 -0.23548798 -0.2049576 0.20819084
000320 2d 11 30 3e 13 19 5b 3e 03 fc 67 3e 08 6e 37 3d
       0.17194052 0.21396284 0.22654729 0.04478267
000330 e2 c8 dc 3d 20 e5 05 3d b0 43 39 bd 38 ab c7 bc
       0.10780503 0.032689214 -0.045230567 -0.024373636
000340 ff 8b 48 3e 8b ea 50 bc 66 55 72 bd 5a 7f d6 bd
       0.19584654 -0.012751232 -0.059163474 -0.10473509
000350 b0 79 54 be a3 92 17 be 74 7c 56 3e e5 9d 97 bd
       -0.20749545 -0.14802031 0.20945913 -0.07403163
000360 53 1b 2d 3c d5 a1 c0 3d 0d 74 01 3e 68 0e 8d bd
       0.010565597 0.09405867 0.12641926 -0.068875134
000370 c4 ba 49 3d ac 8f 7e 3b a7 2f 82 be 71 28 b3 bb
       0.04925038 0.003884296 -0.2542698 -0.0054674675
000380 49 53 72 3e 57 a8 83 bd 3e ca 10 be b9 3d 6e 3e
       0.23664583 -0.06428593 -0.1413965 0.23265733
000390 ae d9 2e be ab 4d 73 3e 4d 5d 07 3e 81 4d 2b 3e
       -0.17075226 0.23760097 0.13219185 0.16728784
0003a0 8b 0c 2a 3d 87 f1 74 be 3b 08 36 3d 5d 79 4b be
       0.04151587 -0.2392026 0.044441443 -0.19870515
0003b0 c6 ea 24 3e 47 d6 3b 3d a0 6a 35 be b3 58 45 3e
       0.16105184 0.045858648 -0.17716455 0.19272117
0003c0 ab 44 5f be d3 50 33 3d 4c 50 88 3e a0 12 81 bc
       -0.21803539 0.04377825 0.26623762 -0.015755951
0003d0 6a 49 21 be 8d 10 e3 3d a9 80 3b be 43 63 63 3e
       -0.15750661 0.11087141 -0.18310799 0.22205834
0003e0 7f 22 04 3e 61 c5 63 3e 70 6e c8 bc 48 14 d6 3c
       0.12903784 0.22243263 -0.024466723 0.026132718
0003f0 1b 96 d2 3d 4d 0d 5f be e1 32 d2 bd 2f 13 3d bd
       0.102825366 -0.21782418 -0.10263611 -0.046160873

StatefulPartitionedCall/model/tdist_2/dense_2/BiasAdd/ReadVariableOp:0 f4 [128]
000000 e6 c7 9c be 87 c4 ac be c1 ff b6 bd 6f db 14 be
       -0.3062126 -0.33743688 -0.089355 -0.14536832
000010 cb 92 b3 3d 2d 2d 97 3c 22 10 50 3c 91 31 39 be
       0.08768233 0.018454159 0.012699159 -0.18085314
000020 15 bb 0a bd 27 32 7e bd 79 7a 46 bd f4 87 ab bc
       -0.03386982 -0.062059548 -0.048456643 -0.020938851
000030 b1 1e ac be e4 d5 bf bd 43 9f 5d be d7 d2 49 be
       -0.33617166 -0.09366968 -0.21642785 -0.19709335
000040 bd 36 03 3e f4 bb 2b be 4e e1 66 be 54 3f 0f be
       0.1281385 -0.16770917 -0.22546884 -0.13989002
000050 66 bd 68 bc c1 a3 90 be 05 98 56 bd 83 2a 03 3c
       -0.014205312 -0.28249934 -0.05239107 0.008005741
000060 50 ec 1a be 81 71 b9 bd 9a 61 0d be 96 e6 f7 bd
       -0.15129209 -0.09054852 -0.13806763 -0.12104528
000070 58 a5 80 bd c5 de ba bd 83 cd ee bd 0b 41 57 3d
       -0.06281537 -0.09124521 -0.11660292 0.052552264
000080 9c 9b 09 bd 35 7b a4 be fa 2f 2d be 24 35 f9 bd
       -0.033595666 -0.3212525 -0.16912833 -0.12168339
000090 01 f9 9d be b2 82 1e be c7 89 c8 bd c1 1e 50 bd
       -0.30854037 -0.15479544 -0.09791904 -0.05081058
0000a0 48 8e 0c bd fc e8 88 be 6f 0b 85 bd fe 91 07 3e
       -0.034315377 -0.26740253 -0.064963214 0.13239285
0000b0 cb ea e2 bd 3e 5e 82 bd b3 82 df 3d 67 13 19 bd
       -0.110799395 -0.063656315 0.10913601 -0.03737202
0000c0 64 e6 60 be a2 01 aa 3d 2c cc 4e be ee 5d 38 bd
       -0.21962887 0.08301093 -0.20195073 -0.045011453
0000d0 ac dd 8a bd 78 95 48 bd f9 fc 71 3d eb cc 11 be
       -0.06780562 -0.04897067 0.059079144 -0.14238326
0000e0 a3 9e 89 bc 48 bc 55 be 5c 33 1d 3e 4a 55 b8 bd
       -0.016799277 -0.20872605 0.15351623 -0.090006426
0000f0 56 3c 80 be 8e 79 23 be 0d 76 d7 3d 69 36 99 bd
       -0.25046033 -0.15964338 0.10520563 -0.07481081
000100 26 33 bf bd d4 5a 35 bd d4 bc 81 be c8 c5 30 be
       -0.09335928 -0.044276074 -0.25339377 -0.17262948
000110 04 93 e1 bd 65 a3 ae bd fb 43 8f bd df 55 8e bc
       -0.11014369 -0.08527259 -0.06995388 -0.01737493
000120 95 6a 12 be 06 f5 58 bd d7 12 99 bd e0 64 d8 bd
       -0.1429847 -0.052968048 -0.074742965 -0.105661154
000130 2d 88 31 be 7a d8 7e bd f6 f2 b6 bd 49 ce 95 bd
       -0.17337103 -0.062218167 -0.0893306 -0.073147364
000140 27 91 72 bd a3 a7 cb bd 81 10 88 bd 0d 0c 43 be
       -0.05922046 -0.099440835 -0.06643773 -0.19047566
000150 dd 83 fc bd c1 2f c2 bd 56 86 70 bd 2f 5e 42 bd
       -0.123298384 -0.094817646 -0.058721863 -0.0474531
000160 e6 a9 cb bd bf 15 0a be c4 5e 93 bd 77 f1 06 be
       -0.09944515 -0.13484858 -0.071958095 -0.13178049
000170 7c 7e c8 bd 29 e0 08 be b9 2e 3a bd 00 10 95 bd
       -0.0978975 -0.1336676 -0.045454714 -0.072784424
000180 e9 99 ca bd 24 a9 f1 bd f6 fb ca bd af 58 b7 bd
       -0.09892637 -0.11799839 -0.09911339 -0.08952462
000190 70 71 21 be 26 ec de bd cf 95 88 bd 4c 05 07 3e
       -0.15765929 -0.108848855 -0.06669199 0.13185614
0001a0 06 81 b1 bd fd 15 5b be 74 e6 01 bd 5f 41 0f bd
       -0.086671874 -0.21395107 -0.031713918 -0.034974452
0001b0 75 37 0a bd 18 f1 16 be c7 a3 c9 bc fc d8 79 be
       -0.033744294 -0.14740407 -0.024614228 -0.24399179
0001c0 84 cc 0b be 4a 23 0d be 79 c8 99 be a5 48 b3 be
       -0.13652235 -0.13782993 -0.3003576 -0.3501636
0001d0 9f 6c 3b be 40 37 b8 be 3e 16 19 be b9 63 f1 bd
       -0.18303154 -0.35979652 -0.14949891 -0.11786599
0001e0 b3 e5 f5 bd 55 ff 39 bd f0 e7 2c be c4 84 d8 bd
       -0.12006702 -0.04540952 -0.16885352 -0.10572198
0001f0 a0 c1 90 bd 9d 00 bb bd 3d b1 f7 bd 27 e5 1b be
       -0.07068181 -0.09130976 -0.120943524 -0.15224133

StatefulPartitionedCall/model/tdist_1/dense_1/MatMul/ReadVariableOp:0 f4 [100, 100]
000000 78 b6 74 be 7b 82 5a 3b 74 e5 9a 3e a1 f0 3d be
       -0.23897731 0.0033341933 0.30253184 -0.18548824
000010 09 71 0d 3f 90 29 34 be 64 9c 41 be 61 eb 7a 3e
       0.552506 -0.1759398 -0.18907315 0.24503852
000020 79 c7 a5 3e a0 f3 2e 3e e8 6c 32 3d 2b b5 0d be
       0.32378748 0.17085123 0.043560892 -0.13838641
000030 2c f0 1a be 28 91 36 be e4 6e 52 3e 38 1e 00 3f
       -0.15130681 -0.1782881 0.20550114 0.5004611
000040 65 fb 5f 3e ac 8e fa 3c 6c e5 bd 3c bf b5 78 be
       0.21873243 0.03058561 0.023180686 -0.2428808
000050 83 c5 aa be b5 3f 0f 3d 51 16 43 bd 66 3c 24 3e
       -0.33353814 0.034972865 -0.047628704 0.16038665
000060 87 7b 5a 3e 98 90 09 be 6a 84 a8 3d e6 c1 1a bc
       0.21336184 -0.13434064 0.08228381 -0.009445643
000070 e2 d7 87 be 8c 09 9f bd f5 ad 42 3e 7c f1 1a 3e
       -0.26531893 -0.07765493 0.19011672 0.15131181
000080 6a df 59 bd 90 23 59 be c5 fb 35 be 52 f7 57 3f
       -0.05319158 -0.21204972 -0.17771824 0.84361756
000090 50 56 83 3e 12 ae 35 3e 73 83 37 bd e8 20 9e bd
       0.2565179 0.17742184 -0.044803094 -0.0772112
0000a0 bf ad 09 3e 1a 70 be bd 38 0a 4e be e3 48 1a be
       0.13445185 -0.092987254 -0.20121086 -0.15066867
0000b0 ed d5 3d bd 09 fa 99 be be b9 25 bd 58 69 d2 3e
       -0.046346594 -0.30073574 -0.04046034 0.41095996
0000c0 79 b4 7f be a9 76 76 be 7b ff 65 be 41 c8 8d bd
       -0.24971189 -0.24068703 -0.2246074 -0.06922961
0000d0 e7 40 5a be 23 4d ba bd 68 71 68 3e 19 03 af 3e
       -0.21313821 -0.09096744 0.22699511 0.3418205
0000e0 ca b8 9c 3e 43 c5 9f be 07 b3 66 be 0e e3 6f be
       0.30609733 -0.31205186 -0.22529231 -0.23426458
0000f0 13 bf 18 bc 1b 74 a1 3e af 90 3e be d0 ef ef be
       -0.009322899 0.31533894 -0.1860988 -0.4686265
000100 35 f9 83 3b 87 77 67 be d3 6a 93 be 6c 47 6b bd
       0.0040275105 -0.2260419 -0.28792438 -0.05744116
000110 2d 96 62 be 06 2f 36 3e b8 c7 c0 be 1f e3 25 3e
       -0.221276 0.17791376 -0.37652373 0.16199921
000120 1f 62 a3 3e cb fe 14 3e 4a 32 f8 3d dc 0a 21 be
       0.31910798 0.14550321 0.12118967 -0.15726799
000130 07 a5 35 be 75 ec 2f 3e 64 cb 2f 3e 7d c4 d6 bc
       -0.17738734 0.17180045 0.17167431 -0.02621674
000140 0c b7 1f 3e 08 31 3c 3d c1 c7 22 3d 04 9e 85 be
       0.1559717 0.045945197 0.03974128 -0.2609712
000150 2c fe 0c 3e 37 ab 47 bc 84 24 2b be 12 f6 dd 3e
       0.13768834 -0.012186817 -0.16713148 0.433518
000160 ec 68 84 3d b0 bc 91 be f1 1c a1 3e 09 bf 88 bd
       0.06465325 -0.2846427 0.31467393 -0.06677062
000170 c8 73 a7 bd 60 34 86 3e 47 6a fb 3e 7e aa 03 3f
       -0.081763804 0.26211834 0.4910452 0.51432025
000180 95 43 3c be 73 54 1d bd ba f7 b9 3c 5c 93 06 be
       -0.18385155 -0.038410615 0.022701133 -0.1314215
000190 f9 38 c7 3c b6 4b a4 3d 5a 99 bb bd 8e d8 10 be
       0.024319159 0.08022253 -0.09160109 -0.14145109
0001a0 dd e1 27 3e bf e2 70 3e a4 6c e7 3d 2b dc dc 3c
       0.16394754 0.23523997 0.113000184 0.026960453
0001b0 9c c5 18 3e 25 a0 4e 3e f5 07 3f be 75 d9 d1 3c
       0.14919132 0.20178278 -0.18655379 0.025616387
0001c0 81 ea 40 3e ad f5 14 be fd 57 16 be 8f 9f 61 3d
       0.18839456 -0.14546843 -0.14682002 0.055083808
0001d0 1c e0 e7 bd 53 88 9e bd 3e 79 98 be ff 9e 26 3c
       -0.11322042 -0.077408455 -0.2978 0.010169744
0001e0 ae 89 db 3d 45 4a ae 3a e6 ad 4a 3d 91 72 2a 3e
       0.1071962 0.001329728 0.04948225 0.16645266
0001f0 15 1e 7f 3e 5c 2a 8a 3d 58 ec cc bc ef 8c 1d be
       0.24913819 0.06746361 -0.025015041 -0.15385793
000200 9a f3 10 be 5e ec d9 3c bc 71 97 bd 66 d4 f4 3c
       -0.14155427 0.026601966 -0.0739474 0.029886436
000210 13 f5 98 3d 24 91 bc 3d b6 9d e9 bd 3a 23 04 bd
       0.07468619 0.09207371 -0.11407034 -0.032260157
000220 7c 7d be bd 26 da 00 bd 72 aa 8c 3d 00 2e 8b 3e
       -0.09301278 -0.031458043 0.06868447 0.27183533
000230 51 7e 77 be 7d 62 0c be aa a6 9b 3c 19 9e 2f be
       -0.2416928 -0.13709445 0.01900037 -0.17150153
000240 bb c6 1c bd ba fb c4 3d 52 7d 12 3e 3e 66 11 3e
       -0.03827546 0.096183255 0.14305618 0.14199159
000250 5c a4 eb 3d ab ad 21 bd 00 be 8d bc e9 1f 92 3b
       0.115059584 -0.039472263 -0.017302513 0.0044593704
000260 ca e4 ff 3c 7b 02 82 be 0f 16 ad 3e a9 ef 67 bc
       0.031237025 -0.25392517 0.33805892 -0.0141562605
000270 03 62 a4 be 4f cc 2c 3c da f5 1a be e8 9a 42 3d
       -0.32106027 0.010546758 -0.15132847 0.04751101
000280 69 55 78 be 47 e5 d3 3d 79 26 06 3e a2 bb a2 bb
       -0.24251331 0.103464656 0.13100614 -0.004966215
000290 18 63 4c 3e 9d 64 65 bd b3 2a 08 3e 87 ff 8b bd
       0.19959676 -0.056004155 0.13297538 -0.06835847
0002a0 c9 0b ce bd 93 f4 75 bd 3c 3f b4 bd f1 f4 2a bd
       -0.100608416 -0.060047697 -0.088011235 -0.0417375
0002b0 e8 07 3f be 7a 78 9e 3d f0 e6 01 3e 31 ed 88 3d
       -0.1865536 0.07737823 0.12685752 0.06685866
0002c0 ac a8 36 be 3c 41 1d be 7a c6 49 3e 2c 9d 0f 3e
       -0.1783778 -0.15356916 0.19704619 0.140248
0002d0 2f e7 4c 3e da fb 8f bd 97 19 1c be 8b fc 3c 3e
       0.20010065 -0.07030459 -0.15244137 0.18455712
0002e0 16 9d 55 be 9c 89 76 be 17 67 55 3d 2b 4b 87 3e
       -0.20860705 -0.24075931 0.052100267 0.26424536
0002f0 6d 06 c2 bc 18 1b d9 3d d8 a1 94 3d 04 20 10 3e
       -0.023684705 0.10600871 0.07257432 0.14074713
000300 5d a6 df bd 6d cb 4f bd a1 bc 5e be 1c 10 87 3d
       -0.10920403 -0.05073111 -0.21751644 0.065948695
000310 68 e5 7a 3e 0f 74 fb bd 99 de 8b 3d c2 05 b6 3b
       0.24501574 -0.12277996 0.068295665 0.0055548856
000320 6a 23 83 be 99 2e 12 be 7e 49 8f 3e b9 1e 74 be
       -0.25612956 -0.14275588 0.27985758 -0.23839845
000330 96 78 d9 bd a1 a6 67 be a6 e4 92 be 34 65 2c bc
       -0.10618703 -0.22622158 -0.2869007 -0.010522176
000340 30 95 70 3d 86 3a 53 bd 56 60 16 be fa e2 a2 3d
       0.058736026 -0.051569484 -0.14685187 0.079534486
000350 4f 53 fe 3d 73 ef 28 bd 80 56 63 bd 71 78 d3 be
       0.124182336 -0.04124398 -0.055502415 -0.41302827
000360 15 48 42 3e 3c e8 e5 bd f4 f4 5a bc c7 15 51 be
       0.1897281 -0.11225936 -0.013364065 -0.20418464
000370 aa 8b 17 be ac 3b 7f 3c d8 e8 ce 3d 74 34 c7 3c
       -0.14799371 0.015578192 0.10103005 0.024317004
000380 6f ae c9 bd 06 f2 77 be 6c 8d 39 bd e9 0e ed 3d
       -0.09847724 -0.24213418 -0.045300886 0.115751095
000390 14 68 42 be cc 72 29 3e 39 ad de 3d a6 da 0a be
       -0.18985015 0.16547698 0.10872883 -0.1355997
0003a0 04 d4 d7 bd 20 2b b4 bc 09 a7 1d 3e c9 18 00 be
       -0.10538486 -0.02199322 0.1539575 -0.12509455
0003b0 1e 49 d7 be 0a 18 9d bb 05 2f 91 3d 8e 6b 29 be
       -0.4204797 -0.0047941254 0.070890464 -0.16544935
0003c0 4d c0 9a 3d 16 94 51 be ec ac ac 3c 34 89 00 bd
       0.0755621 -0.20466647 0.02107855 -0.031380847
0003d0 76 f9 5c be ba c4 ef 3d c0 af 1d 3d f9 3a fd bd
       -0.21579537 0.117074445 0.038497686 -0.12364764
0003e0 0a 59 98 bd 27 02 46 3e b3 23 84 be 36 4c 98 bd
       -0.07438858 0.19336759 -0.25808486 -0.07436411
0003f0 f6 aa 42 3e e8 f9 98 bd f4 d3 d9 bd be 3b aa be
       0.19010529 -0.07469541 -0.1063613 -0.33248705

StatefulPartitionedCall/model/tdist_1/dense_1/BiasAdd/ReadVariableOp:0 f4 [100]
000000 de 6e 91 bd 90 73 6c bc f4 8b 41 be 3d 2a f4 bc
       -0.07101224 -0.014431849 -0.18901044 -0.029805297
000010 86 62 f7 3c ad 50 97 bc b1 55 62 bd f3 e9 3a 3e
       0.030198347 -0.018471086 -0.055257503 0.18253307
000020 e1 aa 94 bd 45 6e c9 bb d0 4a 46 bd e3 00 05 bd
       -0.07259155 -0.0061471784 -0.04841119 -0.03247155
000030 89 31 26 bd c2 52 b4 bc 42 74 0d 3c 51 43 92 bd
       -0.040574584 -0.022012118 0.008633675 -0.07141746
000040 f5 23 03 bd 1e 9b b2 bd ca fc a9 bd da 20 3b bd
       -0.032016713 -0.087209925 -0.08300169 -0.045685627
000050 72 67 3e bc 78 cd cf bd 5a ae e4 bc f6 01 5e bd
       -0.011621343 -0.10146612 -0.027915169 -0.05420109
000060 fb 53 ca 3d 35 a7 68 bd 00 00 00 00 c3 93 4a bc
       0.09879299 -0.056800086 0.0 -0.012364331
000070 4a 93 5f bd 19 bf 11 be 46 20 de 3a 85 1d 13 bd
       -0.054583825 -0.14233054 0.0016946874 -0.035916824
000080 5d 05 e5 bd 24 a9 82 bd ac 26 06 be 98 de 5e be
       -0.111826636 -0.06379917 -0.1310069 -0.217646
000090 90 13 6b 3b 47 91 cf bb 7f 41 83 bd 93 9b c8 3d
       0.0035869814 -0.006334457 -0.06408977 0.097952984
0000a0 b5 f6 2c bd e6 a1 fb bc de 78 19 bd 77 53 ed bd
       -0.042227466 -0.030716848 -0.037468784 -0.11588185
0000b0 1c c4 59 be da ef a5 3e 42 c0 3c bd e8 72 54 be
       -0.21266216 0.32409555 -0.04608179 -0.20746958
0000c0 c3 09 a4 bd 68 ab 1f bd 47 21 0d bd da 04 7b bc
       -0.080096744 -0.038981825 -0.034455564 -0.015320981
0000d0 b1 84 e5 bc e2 d1 45 bd 97 91 50 be 14 c4 da bd
       -0.028017374 -0.048295863 -0.20368038 -0.1068193
0000e0 6b 5a 80 be 6c 7d 1a bd 9b b7 02 be cc fd 32 3e
       -0.25068983 -0.037717268 -0.12765352 0.17479628
0000f0 cd ee 3f be 3f bb c4 bd d5 37 f6 bc 60 c2 43 3d
       -0.18743439 -0.09606027 -0.03005592 0.047792792
000100 0b c9 94 bc 03 65 9e bd 60 09 d7 bc eb a4 bd bb
       -0.018162271 -0.0773411 -0.026249588 -0.005787482
000110 69 f2 0b bd 47 fb a6 bd 0c 66 9b bd d3 12 e0 bc
       -0.034166727 -0.08153396 -0.07587823 -0.027352726
000120 76 6b 28 be 52 a3 ad bb e8 df b0 bd 4d a0 47 bd
       -0.16447243 -0.0052990103 -0.08636457 -0.04873686
000130 c3 cc 94 bd 01 09 00 bd 34 16 1e bd e5 8a 91 bd
       -0.07265618 -0.031258587 -0.038595393 -0.0710657
000140 2c 96 70 bd f8 1f 9e bc 29 99 11 be 14 91 30 be
       -0.058736965 -0.019302353 -0.14218582 -0.17242843
000150 1b 9f ed bc 8b dd c2 bd 3b 0f 0b bd e2 ad 24 3d
       -0.029006531 -0.09514912 -0.03395007 0.04020489
000160 13 db 88 bd 2d 1d 0b 3e ab d8 ae bc cc b3 79 bd
       -0.0668241 0.13585348 -0.02134355 -0.060962483
000170 84 2d b4 bc 72 77 ae bd 9e d1 31 be ff f3 9b be
       -0.02199436 -0.08518876 -0.17365119 -0.30459592
000180 63 47 29 be 50 8f 9a bd 76 34 75 bd 47 28 44 be
       -0.16531138 -0.07546866 -0.059864484 -0.1915599

StatefulPartitionedCall/model/tdist_0/dense/MatMul/ReadVariableOp:0 f4 [6, 100]
000000 79 67 88 3f 60 61 70 be a1 c1 bc be 5c 90 7c bf
       1.0656577 -0.23474646 -0.36866477 -0.98657775
000010 4d 6b 56 3f f1 20 26 3f 16 81 30 3f ef f8 85 3e
       0.8375748 0.64894015 0.6894697 0.26166484
000020 7c 3f 77 bf a7 e7 1f bd 28 f2 16 3f 0b 72 0f bf
       -0.96581244 -0.03903928 0.5896325 -0.5603339
000030 b7 84 14 bf 57 a6 e9 be ea 6a 38 bf fb e9 30 bf
       -0.58015007 -0.4563472 -0.7203814 -0.69107026
000040 4b f7 5e bf 7b a7 52 be de c4 2c 3f ff 87 27 3e
       -0.8709609 -0.20571701 0.67487895 0.16360472
000050 1c 88 eb bc 88 36 43 bf 09 98 43 bf 38 ae 62 be
       -0.028751425 -0.76255083 -0.7640386 -0.22136772
000060 52 02 19 bf d4 07 67 3f d9 0c 80 3e 73 b1 a0 3e
       -0.59769166 0.9024632 0.25009802 0.31385383
000070 20 a4 ef 3e 8b e4 19 3f 79 90 45 3f 22 dd e2 3e
       0.46804905 0.60114354 0.7717357 0.44309336
000080 20 9e 88 be e3 65 0a 3e e0 d7 54 3f f9 8e 4a be
       -0.2668314 0.13515429 0.831419 -0.19781102
000090 47 23 f6 be 87 39 5d 3f f6 55 a9 3e 31 c8 2b be
       -0.4807379 0.86415905 0.33073395 -0.16775586
0000a0 9c 9a 5c be 1d c6 c6 3d 8f e9 64 3f f0 f4 c3 be
       -0.21543354 0.09705756 0.8941888 -0.3827281
0000b0 cd be db be 78 bc 00 bf 85 8d ac be e7 44 39 3f
       -0.42919007 -0.5028758 -0.3370172 0.7237076
0000c0 fd df 3f 3e 08 39 28 bf 9d b5 f1 bd 04 fe 3f 3f
       0.18737788 -0.6571202 -0.11802218 0.7499697
0000d0 8a d6 a8 be 02 88 62 bf bf bf d0 bd c0 ad b9 3e
       -0.3297618 -0.8848878 -0.10192823 0.36265373
0000e0 ac 3a a5 3e 7a e6 08 be bb 1b 55 be 5f 23 88 3f
       0.32271326 -0.1336917 -0.2081136 1.0635794
0000f0 fc ad c0 bd 0c 12 32 bf 04 f4 47 bf 04 5f 57 bd
       -0.09408185 -0.6955879 -0.78106713 -0.05258085
000100 9f de c9 be 59 bf 1b bf 49 f1 b0 be 9b 1c ed be
       -0.3942766 -0.6083885 -0.34559086 -0.46310887
000110 e7 8a 49 bf c7 b0 1b 3f df f8 2d bf 72 7b 95 be
       -0.78727573 0.60816616 -0.6795787 -0.29195744
000120 b3 ff 81 be 37 6a b7 3e 9a 6e 89 3e 5a b2 e4 be
       -0.25390396 0.35823223 0.26842195 -0.4466732
000130 41 1c 33 bf 39 0e 23 bf 2e 47 18 3f 4d c8 29 3f
       -0.6996499 -0.6369358 0.5948361 0.6632126
000140 71 97 13 bf d8 f9 9a bd 68 6f 2f 3f bc bb a8 bd
       -0.57652956 -0.07567185 0.6852937 -0.082389325
000150 53 84 41 bf 69 21 a5 3e 7b fd 0d 3f 5e 30 39 bf
       -0.75592536 0.32252052 0.55464906 -0.7233943
000160 60 94 4e bf a8 85 37 be b2 9e 34 bf 02 ff 3b bf
       -0.8069515 -0.1792208 -0.7055465 -0.73435986
000170 5a af 65 be 4d e7 54 bf 80 bb c8 3e 9e 19 62 3e
       -0.22430173 -0.83165437 0.3920555 0.22080085
000180 db 5c 3c bf be 88 9a be 28 df 2c 3f 35 2d 3a 3d
       -0.73579186 -0.3018245 0.6752801 0.04545327
000190 c7 94 65 bd b1 5d 7a 3e ff 1a 2d 3e 79 ee 7b be
       -0.05605009 0.24449803 0.1690483 -0.24602689
0001a0 e0 a3 7c bd 38 1e 58 3d 38 e4 6f bd 09 61 0c 3f
       -0.06167972 0.052763194 -0.058567256 0.54835564
0001b0 82 78 02 bf 38 ff 93 bd 58 f4 c5 bc ca 9e 5e be
       -0.5096513 -0.072264135 -0.024164364 -0.2174026
0001c0 eb 9d 4f be be 2a c9 bc 4e 7b 4c 3f e9 f2 d3 3e
       -0.20275085 -0.024556514 0.7987565 0.41396263
0001d0 7c d8 d8 bb dd ad 8e bd 6a e1 c0 3e af bd 9e be
       -0.006617604 -0.069667555 0.37671977 -0.31004092
0001e0 88 db 26 bd 9a 17 cc bd 7f 09 29 bf 3c 5f fe bc
       -0.040736705 -0.09965439 -0.66030115 -0.03105127
0001f0 36 7f 23 3f 35 f6 27 bf 23 44 01 3e d1 15 80 be
       0.63865983 -0.6561006 0.12623648 -0.25016645
000200 72 b0 41 bf d0 e5 8e 3e 52 e0 61 3e 21 16 d0 bd
       -0.7565986 0.27909708 0.22058228 -0.10160471
000210 13 c1 14 3f 0e a4 0b 3e 69 1b 28 3e f5 f0 b8 be
       0.5810711 0.136368 0.16416706 -0.36121336
000220 84 9b ef be 4a 0d 05 3d b1 05 4c 3e 50 6f f8 3e
       -0.46798337 0.032483377 0.19924046 0.48522425
000230 cf 80 31 3c a0 45 2c bf 72 83 88 3e 24 ae 56 3f
       0.010833933 -0.6729374 0.26662785 0.8385947
000240 1d 21 ea 3e 08 34 5e bf 19 37 07 3d 9e b8 03 3f
       0.45728388 -0.86798143 0.03301153 0.5145358
000250 c2 32 e6 be 95 d8 d7 be 7c 10 0f 3f de a9 eb be
       -0.449606 -0.42157426 0.5588453 -0.46028036
000260 c8 23 02 3f 5f 3d dd be c1 9e 70 be 93 2d f3 be
       0.5083585 -0.43210885 -0.2349806 -0.47495708
000270 b1 c5 8c 3e 7d 60 a9 bb 4d 0a 05 3f da c5 5f bd
       0.27494577 -0.005168973 0.5196884 -0.054632045
000280 84 f6 59 be fc 01 9e 3d e3 03 da be 43 2a ef bd
       -0.21285444 0.07715222 -0.4258109 -0.11677983
000290 e7 5f 0c be 41 04 a1 3d a5 17 16 3e 08 f8 09 3e
       -0.13708459 0.078621395 0.14657457 0.13473523
0002a0 2c 53 47 bf b2 b5 4d 3e 5a e4 12 bf b8 28 a0 bd
       -0.77861285 0.20088843 -0.57379687 -0.078202665
0002b0 0a 2d d7 3e 76 25 5a 3e 75 51 19 bf be 28 17 3e
       0.4202655 0.21303353 -0.5988992 0.14761636
0002c0 23 2a 22 bf c7 16 4a 3e 99 2e 6e be af 87 f1 be
       -0.63345546 0.19735251 -0.23259963 -0.4717383
0002d0 3c 45 3e bf bc 95 bc 3c c3 8c e8 3e a9 97 40 bf
       -0.74324393 0.023020618 0.45419893 -0.75231415
0002e0 2c 97 ea be 78 76 0c be a7 b8 74 be da 95 72 3f
       -0.4581846 -0.13717067 -0.23898564 0.94759905
0002f0 c5 20 22 be fa 6d 9c be 7a a6 02 3e 8b 37 06 bf
       -0.15832813 -0.30552655 0.12758818 -0.524285
000300 14 c7 22 be 93 c5 b3 3e 88 0a 2c bf 81 db b1 3e
       -0.15896255 0.35111675 -0.6720357 0.3473778
000310 8b b6 a6 be c3 d9 a4 3c 8e f2 92 3e b0 4e 4a bf
       -0.32561144 0.020123368 0.2870068 -0.7902632
000320 b4 2f bf bb 87 ed 54 bc 46 77 4a 3f c6 3c 12 3f
       -0.005834544 -0.012996084 0.79088247 0.5712398
000330 41 83 21 3f ad 96 c3 3c 79 49 80 3f 4b 5b 5c 3f
       0.630909 0.023875559 1.0022422 0.860768
000340 e8 23 97 3e cd 4c c2 3d 6a f2 92 be 19 c7 03 3e
       0.29519582 0.09487305 -0.28700572 0.12868918
000350 0f 91 df 3e 8a a4 2d 3f d9 00 0d bf cb 45 96 3e
       0.43665358 0.6782919 -0.5507942 0.29350123
000360 45 5a 53 3d bd e8 53 be a5 a1 d1 3e 9e f7 5b 3e
       0.05159976 -0.20694251 0.40943637 0.21481177
000370 20 24 38 3e cd c4 31 3f 53 2f f0 3e f6 35 c8 3d
       0.1798253 0.6944092 0.46911106 0.09775917
000380 1d c8 bc 3e 8e 96 42 bf f0 96 2b bf a5 b0 13 3f
       0.36871424 -0.7601098 -0.6702719 0.57691413
000390 26 11 2c bf 2a e5 cc be 1d d7 17 be 27 e2 f4 be
       -0.67213666 -0.40018588 -0.14828153 -0.4782879
0003a0 72 f6 f8 3e 02 c2 ce 3e 85 28 09 3f 13 af 1d bc
       0.48625523 0.4038239 0.5357745 -0.0096242605
0003b0 73 ea a3 be c4 31 3e bc 77 ee a6 be c9 e1 af 3e
       -0.32014808 -0.011608545 -0.3260381 0.34351948
0003c0 55 58 70 3f cc 2b 0b 3f c2 99 ec bd 60 06 ba 3e
       0.93884784 0.54363704 -0.115527645 0.3633299
0003d0 f9 86 bc 3e 4d 5c 8b bc a4 4c 48 ba b0 26 3e 3f
       0.36821726 -0.017011786 -0.0007640815 0.7427778
0003e0 66 5b 18 3f a2 84 43 bf ff 07 05 3f 52 91 c2 be
       0.5951446 -0.76374257 0.51965326 -0.38001496
0003f0 02 2d f0 3e 6a 76 0b bf 80 01 80 3f d4 6c 35 3f
       0.46909338 -0.5447756 1.0000458 0.70869184

StatefulPartitionedCall/model/tdist_0/dense/BiasAdd/ReadVariableOp:0 f4 [100]
000000 15 22 d0 be a3 86 9a be c4 49 e4 bc 94 0a 75 3d
       -0.40651003 -0.30180845 -0.027867205 0.05982454
000010 e5 db d4 bd 69 29 f9 be 06 27 4d bd 0d a5 27 be
       -0.10393504 -0.48664406 -0.050086044 -0.16371556
000020 56 57 bd 3d 8c 07 31 be 77 90 d7 be f5 95 90 3d
       0.09245174 -0.17288035 -0.42102405 0.07059852
000030 58 2e 6c bd e6 bc d6 bc 37 1c f6 bd ff 07 f3 bc
       -0.057661384 -0.02621312 -0.120171 -0.029666899
000040 d4 28 17 3f 23 dd 00 3d f1 4d 21 be 7c 4b 86 be
       0.59046674 0.031460892 -0.15752389 -0.26229465
000050 ad 1d 5c be 03 22 81 3c 00 e3 4d bd 11 2c 85 be
       -0.21495695 0.015763288 -0.050265312 -0.26010182
000060 62 4c 8e bb 52 24 96 be f0 d0 14 be 0d 76 c5 bd
       -0.0043426016 -0.29324585 -0.14532828 -0.09641657
000070 45 7f 94 be 95 46 8a be 83 7c 84 be ee 28 56 be
       -0.2900335 -0.27006975 -0.25876245 -0.20914051
000080 42 5f 33 be f3 8b 70 be 65 4e 49 be 51 30 11 be
       -0.17516807 -0.23490886 -0.19658811 -0.14178587
000090 39 2c 92 be 74 30 81 be a2 7d 76 be ea 6b b1 bd
       -0.28549364 -0.2523228 -0.24071363 -0.08663161
0000a0 39 c2 91 bd e6 24 33 be 97 0c cd be 92 1e 0a be
       -0.07117123 -0.17494544 -0.40048668 -0.13488224
0000b0 ff c3 39 3e d6 e8 64 3c 60 80 2c 3e a0 41 da bd
       0.18141173 0.013971528 0.16845846 -0.10657048
0000c0 5d ef 83 be 54 99 88 3d 15 21 4c be eb 19 10 be
       -0.25768557 0.0666987 -0.19934495 -0.14072387
0000d0 ff 91 ed bd a9 be be 3c 8a 67 16 3b 00 29 a6 be
       -0.11600112 0.023284273 0.0022949898 -0.32453156
0000e0 f9 40 8e bb c8 88 ba 3c 00 49 07 be f8 e0 97 be
       -0.0043412414 0.0227703 -0.13211441 -0.29663825
0000f0 92 8d 09 be a2 da f6 3d e8 0a d7 bb 0f 92 9e be
       -0.13432911 0.1205342 -0.0065625794 -0.3097081
000100 f9 ea 2f 3e d2 62 80 bd 09 5a 9b bc bb 22 6e bd
       0.17179479 -0.062688485 -0.01896383 -0.05813859
000110 5a 01 53 be 49 80 bb be e4 6f 92 bd 5b b0 b8 be
       -0.20605984 -0.3662131 -0.07150248 -0.3607205
000120 02 2c ce 3d bc f5 88 bd f6 1c 78 bd f6 00 d5 bd
       0.100669876 -0.06687495 -0.060574494 -0.10400574
000130 0d 84 96 3c 97 c2 02 3d d3 ff 10 be 10 eb 94 be
       0.018373514 0.031923857 -0.14160089 -0.29085588
000140 56 21 37 bc 6f 7c d2 bc 09 56 3e be 9e 8d 1b be
       -0.0111773815 -0.0256941 -0.18587507 -0.15190741
000150 d1 61 36 3d dd e8 fa bd 29 f8 7b be 7e cd 3e bd
       0.04452688 -0.122514464 -0.24606384 -0.04658269
000160 0e 1c a3 3d 2e 5a b0 be ff 39 6a bc 68 8d 04 be
       0.079643354 -0.34443802 -0.014296054 -0.12944567
000170 6f bf 27 3d 67 9d 46 3e 80 78 42 be 38 5a a3 be
       0.04095405 0.19395982 -0.1899128 -0.3190477
000180 68 9c 78 3d 63 ba cc 3c 8a cf 7e be c0 e2 21 be
       0.060696036 0.02499122 -0.24883857 -0.15809155

StatefulPartitionedCall/model/output/MatMul/ReadVariableOp:0 f4 [100, 2]
000000 93 45 51 bd 68 08 b1 3b 43 09 ae bd b2 b7 02 3d
       -0.05109174 0.0054026134 -0.0849786 0.031913467
000010 d1 63 b0 bd 19 0a 8e 3d cb cc 56 3d 3b 7e 65 3d
       -0.086127885 0.0693552 0.0524414 0.056028586
000020 61 81 61 3e 91 1a 57 3e ea 24 b9 3d 80 1e 2e 3e
       0.2202201 0.21006228 0.09040244 0.17003822
000030 b6 ed 68 3d 5e d4 38 3d aa 9b 1e 3d 8f 34 0d 3e
       0.056867324 0.045124404 0.03872267 0.13789581
000040 dd 7f 26 bd 70 cb 1f be aa 6c 4d ba 5f b3 af 3c
       -0.040649284 -0.15604949 -0.00078363216 0.021447835
000050 9f a8 77 3c 25 5f 42 3d cb bb db 3d db c1 9b 3d
       0.015115886 0.04745402 0.10729178 0.07605334
000060 0e 01 f1 3c b2 2a 15 bc b1 c7 e9 bc 63 b2 2e be
       0.029419448 -0.009104418 -0.028537603 -0.17060237
000070 c1 36 11 3e 85 c4 1e 3e 42 44 97 3d 8a 13 a3 3d
       0.14181043 0.15504654 0.07386066 0.07962711
000080 69 f9 1f bd 2c 0a 16 bd d2 a6 11 be 7b 61 3f be
       -0.039056215 -0.036630794 -0.14223793 -0.1868953
000090 0f fd 63 bc 52 f5 e0 bc c9 1f 09 3e 39 5a 84 3d
       -0.013915314 -0.027460728 0.13391031 0.06462521
0000a0 b7 48 58 bd 31 f5 f6 3d 9d 53 d8 bd 73 ee 8c bd
       -0.05280372 0.12058485 -0.10562823 -0.06881418
0000b0 6b 97 8b bd c4 e6 e0 3a 78 42 80 3d e0 e2 4f 3d
       -0.0681599 0.0017158617 0.06262678 0.050753474
0000c0 f4 9e 6d 3d 86 fb 8a 3d 08 5a fc 3d 5e 2d 16 3e
       0.058012918 0.067862555 0.123218596 0.14665744
0000d0 20 a9 08 bd 22 13 d2 3b 5e 6e 9f 3d 8a ca 69 3c
       -0.033364415 0.006410972 0.07784723 0.0142694805
0000e0 c0 e4 cd bc b8 45 2e bb f8 6a a5 bd ad c0 11 be
       -0.02513349 -0.0026591849 -0.08077043 -0.14233656
0000f0 dd 3e 09 be 5e ef 9e bd f2 51 71 3c 79 18 81 be
       -0.13402887 -0.077604994 0.01472901 -0.25213984
000100 87 1c dd bd 42 ab 16 3d 77 f3 5a bd 7b e4 88 3c
       -0.10796457 0.036784418 -0.053454842 0.01671051
000110 76 de bf 3d 8a ed a7 3d 15 48 df 3d 45 65 c2 3d
       0.09368603 0.08199604 0.109024204 0.09491972
000120 bc f9 33 bd 8b 05 80 bd 6b 7a b5 3d 83 53 82 3c
       -0.043939337 -0.06251057 0.0886124 0.015908962
000130 a0 df 9d bd 67 52 80 bd 11 5b 52 3c 2c cd cb 3c
       -0.07708669 -0.06265717 0.012839095 0.024878107
000140 c2 cc 94 bd 3d c0 b4 bd 13 c0 15 3e c9 4e e7 3d
       -0.07265617 -0.08825729 0.14624052 0.11294324
000150 b8 0b 01 3d 70 da 50 3d ef 00 ee bd 74 52 5d bd
       0.031505316 0.05098957 -0.11621272 -0.05403371
000160 56 be a9 3d 8f f3 06 3d 32 b7 28 be 7d 17 1a be
       0.08288257 0.03294712 -0.16476133 -0.15048023
000170 ad b5 6b 3d c5 a6 1d bd 37 76 87 bb 87 44 00 3d
       0.057546306 -0.038489122 -0.0041339654 0.031315353
000180 ba ec 24 3e ae d6 2f 3e 53 de c2 3d 02 ba b1 3c
       0.16105929 0.17171738 0.09515061 0.02169514
000190 4d 6e c1 3c ec d9 e2 bc 7b 02 07 be 53 b4 12 be
       0.023612166 -0.027691804 -0.1318454 -0.143266
0001a0 5a 7e 15 be 90 ae c3 bc 02 de af 3d f5 fb 48 3d
       -0.1459898 -0.023886949 0.085872665 0.04906841
0001b0 0f 8c d5 3d 0f 05 c5 3d e4 70 96 3d 57 78 f5 3d
       0.10427105 0.096201055 0.07345751 0.11985844
0001c0 cc 84 38 be 06 1c 41 be d7 20 5e bd 9c 8a 50 bd
       -0.18019408 -0.18858346 -0.054230537 -0.05091344
0001d0 66 23 b1 bc a5 48 b4 3b f0 6a 39 3e 7f d1 2b 3e
       -0.021623325 0.005501824 0.181072 0.16779135
0001e0 59 26 83 bc fd dc 02 3c 71 99 1a bd aa 8b 83 bc
       -0.016009497 0.007987258 -0.03774399 -0.016057808
0001f0 ac 6b 06 bd d3 ff 31 bd 5c 51 20 3e 5f 6e 02 3e
       -0.032817528 -0.043456864 0.15656036 0.12737416
000200 d9 f8 c3 bc 2d b8 73 bd 37 eb 4c bd 73 46 4b bd
       -0.02392237 -0.059501816 -0.050029006 -0.049627732
000210 ba a5 bf 3d 55 61 be 3d 42 8d c2 3d 28 5a e6 3c
       0.09357782 0.09295908 0.09499599 0.028119162
000220 5e f0 8d 3e a5 d1 a9 3d ac 12 d1 3c cb 11 bd bc
       0.27722448 0.0829194 0.025521599 -0.023079773
000230 a3 3d 12 be a4 0b d8 bd 50 bf 55 be 92 b0 d8 bd
       -0.14281325 -0.10549095 -0.20873761 -0.10580553
000240 09 53 41 3d 4d 38 44 3d 1e cf aa 3d 90 d5 33 3d
       0.04719833 0.047905255 0.08340286 0.04390484
000250 f4 6c a2 bc de d0 15 bd 12 59 a5 bd a0 eb 85 bd
       -0.019827344 -0.036576144 -0.080736294 -0.065390825
000260 55 6d 00 3c 51 c8 27 3d 09 c5 a6 bd 94 aa 31 bd
       0.007838567 0.04096252 -0.0814305 -0.043375567
000270 e7 43 6b 3d e4 c1 83 3d dd a1 af bc 4c ad 9d bc
       0.057437804 0.06433466 -0.021439487 -0.019247673
000280 2b 4e b0 bd 33 55 03 be 13 f5 e2 3d 89 34 36 3e
       -0.08608659 -0.1282547 0.110819004 0.17793478
000290 41 7a 5f 3e 30 9a 55 3e c3 cd 64 be db 55 27 be
       0.2182398 0.20859599 -0.22344117 -0.16341345
0002a0 c2 67 d3 3d b4 88 b8 3d e9 81 a7 bd a1 e3 52 3c
       0.103225246 0.09010449 -0.08179075 0.012871654
0002b0 d7 17 20 3e 39 76 0b 3e 90 ab f5 bd 76 00 12 be
       0.15634094 0.13619317 -0.119956136 -0.14257988
0002c0 85 ef 7d bc 6b fc 0b bd 56 87 d6 3b c1 9d 18 3c
       -0.015499 -0.03417627 0.006546895 0.009314955
0002d0 68 78 dd 3c b4 a4 6c 3c bc 4e be bd 95 7f 40 bd
       0.027034953 0.014443565 -0.09292361 -0.04699667
0002e0 65 35 dd bd 1d 16 99 bd a0 41 77 bd 43 13 0a bd
       -0.108012 -0.07474921 -0.06036532 -0.033709776
0002f0 e8 5f 61 bd 39 aa 06 3a 2b 14 f3 3c 41 31 dc 3b
       -0.055023104 0.00051370595 0.029672703 0.0067197387
000300 46 b3 f3 3d 91 09 eb 3d 0c bc 7e 3d e2 01 1d 3d
       0.11899428 0.11476434 0.062191054 0.038331874
000310 cf 03 0f 3e 25 7b 2b 3e 60 39 1a bd 2e 1d d4 3d
       0.13966297 0.16746195 -0.037652373 0.10357128

StatefulPartitionedCall/model/output/BiasAdd/ReadVariableOp:0 f4 [2]
000000 c7 31 26 bc 09 33 26 3c
       -0.010143704 0.010144004

StatefulPartitionedCall/model/dense_2/MatMul/ReadVariableOp:0 f4 [100, 100]
000000 8a e1 3a bd 0a 13 97 3d 7f 5d 97 3d f8 79 9c bc
       -0.045625247 0.07376678 0.0739088 -0.019101128
000010 1e 57 17 3e 4e 2d da bd d5 16 a6 3d 3f 0d 08 be
       0.14779326 -0.106531724 0.081098236 -0.13286303
000020 20 e0 5b 3d 09 53 a2 bd 1c 89 1d bb b4 5b 9e bd
       0.05368054 -0.07925994 -0.0024038022 -0.07732335
000030 7a f8 e2 bd c7 31 3c bd 2f 16 8a be 3a ba 3e 3e
       -0.110825494 -0.04594591 -0.2697005 0.18625727
000040 46 c7 e9 bd a0 fe a5 3d 7b 88 0a 3e d4 fb 4c be
       -0.114149615 0.081052065 0.13528626 -0.2001794
000050 c2 d6 45 be 5e a4 fd 3c 78 2d 19 be 70 0e 33 be
       -0.19320205 0.030962165 -0.14958751 -0.17485976
000060 3f 4b 06 be 80 24 ee 3c 67 b4 39 3e c2 5b 58 3d
       -0.13114642 0.029070139 0.18135224 0.052821882
000070 67 66 26 bd 9f 03 a6 bd 28 9d 43 be ed 8d 80 be
       -0.040625002 -0.081061594 -0.19102919 -0.2510828
000080 01 2a fd bd 6c 0e dc bd 02 00 4b be 06 1b 33 be
       -0.12361527 -0.10744938 -0.19824222 -0.17490777
000090 d2 ec 75 be be 04 3b be d0 16 15 3e 32 64 aa bd
       -0.24016121 -0.18263528 0.14559484 -0.08319892
0000a0 87 23 9c bc 95 b3 51 3c e2 ce 5f bd a0 81 33 3e
       -0.01905991 0.012799163 -0.05464066 0.17529917
0000b0 61 e0 3c be 9c 31 ac 3d 6f a6 ac bd 19 7a 4e 3e
       -0.18444969 0.084079 -0.08430182 0.20163764
0000c0 24 0f 18 be 00 b7 5a be 07 2a 01 3e 19 76 de bd
       -0.14849526 -0.21358871 0.12613688 -0.10862369
0000d0 04 e8 1f 3e b0 4e 41 be 2f 4c 3c be 2a 41 64 be
       0.1561585 -0.18877673 -0.18388437 -0.22290483
0000e0 67 ef 0c bd 91 9e 57 3e 4b bb 36 bd b9 22 2c 3e
       -0.034408 0.21056582 -0.04461221 0.1681012
0000f0 10 62 15 3e 05 9e 24 3e c4 0d 0d be 84 be 4d be
       0.14588189 0.16075905 -0.13774782 -0.20092207
000100 a9 45 1d 3e f5 3e e7 3d 0a f3 21 3d 4e 08 c5 bd
       0.15358604 0.11291305 0.03953842 -0.096207246
000110 00 16 a9 3e 67 e8 c6 3c 79 ee 0e 3e ca e5 73 3d
       0.33024597 0.02428074 0.13958158 0.059545316
000120 36 e4 d7 bd 75 fe a2 3d 26 7b f0 bd ef 16 9a 3c
       -0.10541575 0.0795869 -0.11742239 0.018809764
000130 0b 17 88 be 6a 27 fc 3d 45 85 34 3d fd 52 a0 3d
       -0.2658008 0.12312205 0.04407241 0.07828329
000140 74 3d 7e 3e d2 32 84 be 70 66 43 3e 45 5d d2 3d
       0.2482813 -0.25820023 0.19082046 0.10271696
000150 18 ce 73 bd eb 27 5e 3e 7a bc f3 3d 0a 3c 76 be
       -0.05952272 0.21694915 0.119011834 -0.2404634
000160 96 e9 f7 3d c7 51 f2 bd b0 25 4d bc ad 14 9a 3d
       0.121051 -0.11832004 -0.012521192 0.07523475
000170 72 d1 46 3d f2 43 6f bd 72 c8 d4 3d 85 10 23 be
       0.048539586 -0.058414407 0.103897944 -0.1592427
000180 db 7b 42 be c9 74 f3 bd 03 cc 56 be 03 56 9e bd
       -0.1899256 -0.118875094 -0.20976262 -0.07731249
000190 bb be 94 3c 72 64 0b bd f8 2b a8 3c 92 a3 44 3e
       0.018157354 -0.03403134 0.020528778 0.19203022
0001a0 38 77 5f 3e 14 af 05 3d 0c e9 07 bd 1f f3 65 bd
       0.21822822 0.03263767 -0.033181235 -0.05614006
0001b0 44 05 72 3d 9e c2 a9 3d 30 52 1c 3e 40 03 36 be
       0.059087053 0.082890734 0.15265727 -0.17774677
0001c0 f0 17 07 be c8 57 f4 3c 7e c8 59 be a9 8c 12 be
       -0.13192725 0.029827014 -0.21267888 -0.1431147
0001d0 e3 3c 95 3d e5 8e b9 3d 61 fc 68 be 86 7e 2b be
       0.07287004 0.09060458 -0.22752525 -0.16747484
0001e0 f7 78 06 3d c2 58 24 3e 5c 01 5e bd 66 94 5f be
       0.032830205 0.16049483 -0.054200515 -0.21833953
0001f0 a7 83 2f 3e 1e 57 57 be e3 8a 31 3c f2 27 96 bd
       0.17140065 -0.21029326 0.010836336 -0.07331838
000200 97 e6 8a be df 99 0a 3e 04 9c 8c 3c 0c 93 1d 3d
       -0.2712905 0.1353526 0.017164238 0.038470313
000210 02 33 c8 3c 3a 21 fa bd 7e a0 6c be c9 ef f9 bc
       0.024438385 -0.12213369 -0.23108098 -0.030509846
000220 9a a1 93 bd 05 a3 74 be 9c 49 44 be c2 e8 ef bc
       -0.072085574 -0.23890312 -0.19168705 -0.029285792
000230 f2 91 a1 bb 25 85 70 be a2 6b 53 be 50 b0 62 3c
       -0.004930728 -0.2348829 -0.20646527 0.0138359815
000240 8a 9b 04 3d 22 93 4e 3e 91 da 60 3e b0 8a 02 be
       0.032374896 0.20173314 0.21958376 -0.12748218
000250 df f6 8c bd 7e 7f 37 3e e5 18 b7 3d 8c 85 07 be
       -0.068830244 0.17919728 0.08940295 -0.13234538
000260 1d a3 2a 3d 84 9d 66 be 89 71 6d be f6 9d 1f be
       0.041659463 -0.22521025 -0.23187841 -0.15587601
000270 68 9c b5 bd 84 66 5f 3e bf 23 49 3e fe 12 08 3e
       -0.08867723 0.2181645 0.19642542 0.13288495
000280 80 2e d5 3c 8e 0a 3d be 68 f3 96 bd 34 fe c0 3d
       0.02602315 -0.18461058 -0.07370645 0.094234854
000290 e1 f6 03 3e dd 21 62 be 35 92 f4 bc 1b 88 c3 3d
       0.12887146 -0.2208323 -0.029854873 0.095474444
0002a0 29 53 8f bc e4 78 11 be 3a 37 41 3e 84 31 ef bd
       -0.017495709 -0.14206272 0.18868724 -0.11679366
0002b0 e6 d0 3e 3e b4 40 c8 bc 76 c7 72 be a2 e1 71 3e
       0.18634376 -0.024444915 -0.23708901 0.23621228
0002c0 52 fa 39 be cf 8b 19 be 2d 25 2d 3e 13 02 54 be
       -0.18161896 -0.14994739 0.16908713 -0.20703916
0002d0 15 e5 2e be 75 e7 52 3e 22 35 25 be 61 28 fd 3d
       -0.17079575 0.20596106 -0.1613355 0.12361217
0002e0 6e a0 c4 3d 90 61 88 3c be e5 01 bd ca b9 23 be
       0.09600912 0.016648084 -0.03171324 -0.15988842
0002f0 ed eb ae 3b 62 52 cb 3d 1e 86 a6 3d 7b e9 5b 3e
       0.005338183 0.09927823 0.081310496 0.21475784
000300 8c 75 08 3e 4c e9 4e be 4e ca 5c bd 33 7d 6e be
       0.1332609 -0.20206183 -0.05390387 -0.23289947
000310 05 df 1b be e2 c9 40 3e bc 33 71 be 2b f3 3a 3e
       -0.15221794 0.18827012 -0.23554891 0.18256824
000320 e8 e2 c0 3d e0 9a 34 3e e8 77 63 bc f6 f2 ce 3d
       0.09418279 0.17637205 -0.013883568 0.10104935
000330 99 a2 e2 bd 5f 60 e7 3d 3e 29 6b 3e 10 0e 29 3d
       -0.11066169 0.11297678 0.22964951 0.041273177
000340 08 02 c9 3c e8 d7 84 be 4a 74 16 be e7 f0 4a bd
       0.024537101 -0.25945973 -0.14692798 -0.04954615
000350 e2 44 2c be 90 f4 32 be d0 06 d3 3d 6c 41 73 bc
       -0.16823152 -0.17476106 0.10304034 -0.014847141
000360 61 19 57 3e 34 d2 4f 3e 41 91 c3 bd a1 90 31 be
       0.21005775 0.2029503 -0.09549189 -0.17340328
000370 c3 1a a5 bc 73 12 55 be 58 51 cb bc 1d 82 16 3d
       -0.020154363 -0.20807819 -0.024819061 0.03674518
000380 a3 4f 23 be ab 89 ab 3d 08 5e 87 bc 5a 2f 78 be
       -0.15948348 0.083758675 -0.01652433 -0.24236813
000390 08 a6 11 3d e9 4f 11 3e 2a c0 8f 3d fa 3e 82 bc
       0.03555873 0.1419064 0.07019074 -0.01589917
0003a0 25 f7 0a be ab b4 14 be 72 d6 ae bd cc 13 15 3e
       -0.1357084 -0.14522044 -0.08536996 0.14558333
0003b0 32 fe f9 3d 1a 56 aa bd 65 cc f9 bc 65 3a 43 be
       0.12206687 -0.08317204 -0.03049297 -0.19065244
0003c0 49 2f 82 be bb 0f 85 bd aa da a8 bd 3a b9 09 3e
       -0.254267 -0.06497141 -0.08244832 0.13449565
0003d0 22 8a eb 3d 22 70 74 bd 71 d5 48 3e f2 37 a0 be
       0.11500956 -0.05967725 0.19612671 -0.31292683
0003e0 ec 6d 3a be 8e ed 06 3e fa 5b 41 bb 01 7b 8b bd
       -0.18205994 0.13176557 -0.0029504285 -0.068105705
0003f0 0e 38 6a 3b 7e 58 bf bd 4e fd 33 3e 31 71 01 3e
       0.0035738978 -0.093430504 0.17577097 0.12640835

StatefulPartitionedCall/model/dense_2/BiasAdd/ReadVariableOp:0 f4 [100]
000000 e5 e1 3e be a9 45 c9 bd ef d9 8d be 38 29 0d be
       -0.1864086 -0.0982774 -0.27705333 -0.13785255
000010 73 93 03 be d9 a8 88 be ca aa cb bd 70 26 cc be
       -0.12849216 -0.2669132 -0.09944685 -0.39873075
000020 55 b1 be bd 26 98 b8 be ed 96 87 bd ed 39 0f be
       -0.09311167 -0.3605358 -0.06620584 -0.1398694
000030 57 35 ef bd d0 da 1e be e3 db 1e be 3e 4f e7 be
       -0.11680096 -0.15513158 -0.15513568 -0.45177644
000040 bf 45 24 be cc 95 52 3d b3 20 84 be fa b2 25 be
       -0.16042231 0.05141239 -0.25806198 -0.16181555
000050 97 9c 80 be fa 76 bd be 38 88 0e be 89 f7 32 bd
       -0.2511947 -0.37004834 -0.13919151 -0.0436931
000060 d2 cd 30 be fc 00 1a be 0b 4d 3c be ab 91 c3 be
       -0.17266014 -0.15039438 -0.18388765 -0.38197073
000070 19 a0 c7 bd 98 fb a3 be ce 9b 52 be f2 20 68 3e
       -0.09747333 -0.32027888 -0.20567247 0.22668818
000080 e8 a5 52 be 40 48 10 be 56 f1 9f be bf 79 89 be
       -0.205711 -0.14090061 -0.31238812 -0.26850697
000090 e7 d8 62 be 96 da 94 be 26 1c 19 be 8b 39 20 be
       -0.22153054 -0.29073018 -0.14952144 -0.15646951
0000a0 de 4e 42 be 46 95 44 be 89 a6 0e be be ec 5c bd
       -0.18975398 -0.19197568 -0.13930716 -0.053936712
0000b0 9e 2e ca be 13 04 0b be 7a 74 29 be 45 c6 d7 bd
       -0.3948869 -0.13575773 -0.16548339 -0.10535864
0000c0 6e e5 53 be 14 cf 7d be 8d 8b 1d be 60 8b 51 be
       -0.20692989 -0.24786025 -0.15385266 -0.20463324
0000d0 4a 8a 5d ba 9a ea 94 be 85 07 eb bc 7c 94 d3 bd
       -0.00084510876 -0.29085237 -0.028690109 -0.103310555
0000e0 11 ef 64 be 1a 5f 4b be 9e 4c 6b be a9 2c 20 be
       -0.22356822 -0.19860497 -0.22978446 -0.15642036
0000f0 e0 af 9c be 77 25 9f be 3a 76 38 be f9 d9 5f be
       -0.30602932 -0.3108327 -0.1801385 -0.21860494
000100 a6 12 4d be ee e0 79 be 8d f6 af bd 09 74 01 bf
       -0.20026645 -0.2440221 -0.08591948 -0.5056768
000110 9e 6c 0b bf 8e 92 9b be 25 e5 44 be a4 70 62 be
       -0.5446261 -0.3038525 -0.19228037 -0.22113281
000120 0c 5a 77 be 44 b8 4f bd d4 7e 0f be 2a ac b1 be
       -0.24155444 -0.05071284 -0.14013225 -0.34701663
000130 98 99 38 be 8f 0d 93 be ce f4 1a be 60 46 0d bf
       -0.18027341 -0.28721282 -0.15132448 -0.5518551
000140 94 36 57 be 5c 6f bc be e6 50 da be aa 70 98 be
       -0.21016914 -0.3680371 -0.42639846 -0.29773456
000150 54 33 01 be 57 9c 40 be 01 28 54 be 39 7c 18 be
       -0.12617236 -0.18809639 -0.20718385 -0.14891137
000160 55 a6 16 be b8 d5 e2 bd 8e 6b 7c be 4f 76 9c be
       -0.14711888 -0.1107592 -0.24650404 -0.30559012
000170 59 3d a2 be e2 f0 21 be d4 58 5c be 08 09 5d be
       -0.3168743 -0.15814546 -0.2151826 -0.21585476
000180 e4 32 6e be 9a f8 83 be 36 44 57 be 8b 78 57 be
       -0.232616 -0.25775605 -0.21022114 -0.21042077
